pretrained/custom.pth (torch_old, 899037 bytes, 237 tensors)

seg.down1.conv.conv.weight f4 [29, 3, 7, 7]
-0.07649813 -0.027964488 0.029385358 -0.016357023 -0.04912561 -0.017743807 0.05123198 0.02466046
0.046010677 -0.076883934 0.06257862 0.059883494 -0.034817405 -0.0037016892 -0.07020583 0.048574258
0.05731016 0.06542756 -0.04739355 -0.021916457 -0.019345392 -0.02076925 0.01195066 0.017894804
-0.06778282 0.008740132 0.047168255 0.087851055 -0.032907575 -0.015684979 -0.041091383 -0.045271847
-0.025860375 0.051038288 0.051137637 -0.046278283 0.058921237 -0.026141452 0.062310945 0.034264892
0.09472808 0.064747855 -0.013048441 0.02101592 0.024305262 0.048922926 0.007231707 -0.021435441
-0.028983746 -0.019482635 0.028313335 0.011514977 -0.08863713 0.04017012 0.012809306 -0.023717247
0.016353488 -0.040430155 -0.060844988 -0.04177483 -0.014517751 -0.06617811 -0.07543982 0.042586323
-0.035020735 -0.042951062 -0.0715416 -0.08465711 -0.024636185 -0.06334741 -0.07217816 -0.09757142
-0.07995676 0.019050611 -0.011095318 -0.05056089 -0.026261415 0.026645076 -0.06541229 -0.024943406
0.02987423 0.015762638 0.030404802 0.0023592643 -0.05989359 -0.0057242457 -0.07410007 -0.06866731
0.06461438 0.05094498 0.051018838 0.010826769 0.006204858 0.028033126 -0.031040307 -0.019203303
-0.020126836 0.04916105 -0.046728693 -0.029523423 0.027904171 0.011765591 0.052179135 -0.016277723
0.025571255 -0.04464368 0.077684365 -0.005286594 0.028976891 0.07380852 -0.011116706 0.0440353
-0.013756993 -0.022683706 0.042404912 0.014445254 -0.03036421 -0.053818215 0.012268292 -0.0057868063
-0.05367288 0.03677694 -0.033113893 0.0015631929 -0.010033514 -0.024085296 0.06279299 0.045793694
-0.044937328 -0.006852145 -0.039624855 0.019259222 0.06943225 0.046670455 -0.038134575 0.028132714
0.041495793 -0.0033421067 -0.013136439 0.053284016 0.06283666 0.05601921 -0.0081073465 0.017261853
0.042625785 0.022530561 -0.010230471 -0.027436651 0.045485537 -0.014864927 -0.00746069 0.041352037
-0.03111605 0.009656397 0.020569077 -0.02061453 -0.017489213 0.016873222 -0.026825285 0.00392768
-0.020533085 0.04039821 -0.009849162 -0.007026647 -0.032349512 0.02770037 -0.030934073 -0.0062200995
-0.032958314 0.007858099 -0.0022633697 -0.008801555 -0.03681639 0.0051747053 -0.0011610694 0.020428397
-0.03296563 -0.027253607 -0.030538375 0.01252866 0.015701173 -0.038506635 -0.021745266 -0.0024536902
-0.021669323 0.00551184 -0.029317575 0.033549115 0.040343788 -0.010466223 -0.04873096 -0.045428485
-0.051247455 0.017439881 0.020019518 0.018115276 0.023643402 0.010356872 0.002362787 0.011998895
-0.0029624116 -0.032687396 0.023043374 -0.0054706135 -0.042068247 -0.008798825 -0.00854615 0.021897074
0.009746363 0.000725295 0.022539906 0.019478586 -0.021480821 0.0046607316 -0.010784005 -0.031063447
0.03543441 -0.033227295 -0.010261803 0.01977668 0.008237306 0.014927815 -0.009236434 -0.019973155
-0.0043002404 -0.0031705818 -0.022349168 -0.024709009 0.026410453 -0.01518668 -0.02246599 -0.024328599
-0.022652624 -0.014674509 0.0048086015 -0.0024988477 -0.022725318 0.021963257 -0.026411327 -0.03987438
-0.013020942 -0.038247045 -0.027796015 -0.020607792 0.030110534 0.04178409 -0.0031218475 -0.00813736
0.0026938347 -0.028393015 0.052536763 0.030195905 0.018582445 0.0025117288 0.042846616 -0.035269886
00000000: 0dab 9cbd c815 e5bc 90b9 f03c 2aff 85bc
00000010: f037 49bd 765b 91bc a0d8 513d bc04 ca3c
00000020: b175 3c3d 5375 9dbd 3829 803d 6548 753d
00000030: b29c 0ebd 0a98 72bb 13c8 8fbd cdf5 463d
00000040: 0fbe 6a3d e2fe 853d bd1f 42bd 248a b3bc
00000050: 3a7a 9ebc 4624 aabc b3cc 433c 2098 923c
00000060: b8d1 8abd c532 0f3c 8033 413d 41eb b33d
00000070: 18ca 06bd c97d 80bc 704f 28bd f96e 39bd
00000080: 23d9 d3bc 860d 513d b375 513d 4c8e 3dbd
00000090: 6557 713d 9926 d6bc c339 7f3d 5859 0c3d
000000a0: cc00 c23d 869a 843d 21c9 55bc 9429 ac3c
000000b0: d41b c73c 6863 483d f5f7 ec3b 6199 afbc
000000c0: 526f edbc 0c9a 9fbc 5ef1 e73c 50a9 3c3c
000000d0: 6287 b5bd 6c89 243d 20de 513c ac4a c2bc
000000e0: c0f7 853c 179a 25bd 9838 79bd 161c 2bbd
000000f0: dcdb 6dbc 6488 87bd 3180 9abd ff6e 2e3d
00000100: e771 0fbd 74ed 2fbd 6784 92bd b560 adbd
00000110: d3d1 c9bc 49bc 81bd 25d2 93bd 86d3 c7bd
00000120: 5fc0 a3bd 0710 9c3c 23c9 35bc f018 4fbd
00000130: 2e22 d7bc c646 da3c e1f6 85bd 1d56 ccbc
00000140: cdba f43c a620 813c 7e13 f93c e39d 1a3b
00000150: fb52 75bd 7492 bbbb c7c1 97bd 72a1 8cbd
00000160: 8b54 843d afab 503d 21f9 503d c362 313c
00000170: 1f52 cb3b baa5 e53c 3e48 febc 3f50 9dbc
00000180: 09e1 a4bc 195d 493d 9666 3fbd 1bdb f1bc
00000190: 4a97 e43c 77c4 403c cab9 553d dc58 85bc
000001a0: cf7a d13c 4bdc 36bd fb18 9f3d 2a3b adbb
000001b0: f260 ed3c ec28 973d d822 36bc 5c5e 343d
000001c0: 0365 61bc 2ed3 b9bc c6b0 2d3d c9ab 6c3c
000001d0: 5dbe f8bc 7d70 5cbd f200 493c 409f bdbb
000001e0: 18d8 5bbd 6ba3 163d 6fa2 07bd 0de4 cc3a
000001f0: 9c63 24bc 874e c5bc 9c99 803d 2b92 3b3d
00000200: 3410 38bd f587 e0bb ac4d 22bd 84c5 9d3c
00000210: 7f32 8e3d 8529 3f3d 0033 1cbd 9476 e63c
00000220: 7ef7 293d 3f07 5bbb 383a 57bc 5740 5a3d
00000230: 82b0 803d 6674 653d add4 04bc bb68 8d3c
00000240: 6098 2e3d 0392 b83c b59d 27bc d4c2 e0bc
00000250: 0b4f 3a3d 068c 73bc ce78 f4bb c160 293d
00000260: 16e7 febc dd35 1e3c 7b80 a83c cedf a8bc
00000270: 8a45 8fbc b639 8a3c b3c0 dbbc c5b3 803b
00000280: 0035 a8bc 9878 253d 615e 21bc ca3f e6bb
00000290: ec80 04bd e3eb e23c 7469 fdbc fad1 cbbb
000002a0: 4cff 06bd 42bf 003c 0b55 14bb 6634 10bc
000002b0: c8cc 16bd 9390 a93b 062f 98ba 7459 a73c
000002c0: f806 07bd f542 dfbc 9d2b fabc 0245 4d3c
000002d0: bf9f 803c 22b9 1dbd 2123 b2bc 17ce 20bb
000002e0: dd83 b1bc aa9c b43b 692b f0bc cc6a 093d
000002f0: 873f 253d 857a 2bbc 1d9a 47bd 3813 3abd
00000300: dae8 51bd 15de 8e3c f9ff a33c 7d66 943c
00000310: cfaf c13c dfaf 293c fdd8 1a3b 0397 443c
00000320: 0525 42bb 38e3 05bd 75c5 bc3c d542 b3bb
00000330: c14f 2cbd f228 10bc 2705 0cbc 7e61 b33c
00000340: 36af 1f3c b921 3e3a 9ca5 b83c 8e91 9f3c
00000350: 8cf8 afbc 0db9 983b 65af 30bc c578 febc
00000360: ac23 113d 5819 08bd 1f21 28bc b402 a23c
00000370: c4f5 063c cb93 743c 6954 17bc be9e a3bc
00000380: 08e9 8cbb 89c9 4fbb 9a15 b7bc 8c6a cabc
00000390: bc5a d83c 8dd1 78bc 990a b8bc c54c c7bc
000003a0: ff91 b9bc 5a6d 70bc 7991 9d3b b5c3 23bb
000003b0: 722a babc 4aec b33c 915c d8bc 5153 23bd
000003c0: ca55 55bc efa8 1cbd 78b4 e3bc acd1 a8bc
000003d0: 5eaa f63c cb25 2b3d e997 4cbb 9052 05bc
000003e0: 0c8b 303b 7898 e8bc ca30 573d 675d f73c
000003f0: 363a 983c d19b 243b ef7f 2f3d 2877 10bd

seg.down1.conv.bn.weight f4 [29]
0.35111278 0.37310284 0.67575806 0.35067785 0.6165245 0.18682279 0.24585132 0.44845125
0.20313708 0.40245864 0.527395 0.64176714 0.35842288 0.44849083 0.1250178 0.17626919
0.51932156 0.38422436 0.46164414 0.06666254 0.6550049 0.5480756 0.22303517 0.37963468
0.5154927 0.37065786 0.5775193 0.6797628 0.44388193
00000000: 0ec5 b33e 5607 bf3e 7bfe 2c3f 0c8c b33e
00000010: 8dd4 1d3f 794e 3f3e 73c0 7b3e 679b e53e
00000020: 2b03 503e 0f0f ce3e 5c03 073f da4a 243f
00000030: 3483 b73e 97a0 e53e ab04 003e e97f 343e
00000040: 42f2 043f 0eb9 c43e 9f5c ec3e 5f86 883d
00000050: 67ae 273f af4e 0c3f 5563 643e 7a5f c23e
00000060: 54f7 033f dec6 bd3e 4ed8 133f ef04 2e3f
00000070: 7e44 e33e

seg.down1.conv.bn.bias f4 [29]
0.08684996 -0.0139412405 -0.01820359 0.025357107 0.20293367 0.08368604 0.037649877 0.004734232
0.022828575 -0.022574592 0.18385656 0.026034525 0.045314472 0.041311294 0.040851843 0.031687975
0.11499596 0.04191779 0.13482442 -0.006310778 0.0072682574 -0.021447754 0.09530053 0.12720098
-0.023674926 -0.059624564 0.18173145 0.18319875 0.0003697414
00000000: 64de b13d cd69 64bc b21f 95bc b5b9 cf3c
00000010: d8cd 4f3e 9663 ab3d c236 1a3d 9e21 9b3b
00000020: fe02 bb3c 5aee b8bc e544 3c3e 5b46 d53c
00000030: ab9b 393d 0836 293d 4354 273d 40cb 013d
00000040: 0083 eb3d fdb1 2b3d 6a0f 0a3e a5ca cebb
00000050: 902a ee3b 33b3 afbc ed2c c33d f940 023e
00000060: ebf1 c1bc e338 74bd cf17 3a3e 7498 3b3e
00000070: dad9 c139

seg.down1.conv.bn.running_mean f4 [29]
0.009757648 -0.016885212 -0.0040570316 0.014422893 -0.0051786983 0.020998465 -0.0048677363 0.03184143
0.008419143 -0.0027682895 -0.024275517 -0.0065486734 -0.0030556973 0.00065264566 0.0024339664 -0.03242831
0.0075252275 -0.011910023 0.043816555 0.00015942618 -0.020533957 -0.010567933 -0.00070633536 0.0037882556
-0.004661549 0.006038023 -0.0019053724 0.010032746 0.015848156
00000000: 8bde 1f3c db52 8abc d9f0 84bb ff4d 6c3c
00000010: 12b2 a9bb f904 ac3c 8881 9fbb 296c 023d
00000020: 72f0 093c 316c 35bb 73dd c6bc 4196 d6bb
00000030: 1842 48bb 4f16 2b3a 2e83 1f3b 8cd3 04bd
00000040: 2f96 f63b 4222 43bc fd78 333d a42b 2739
00000050: d436 a8bc 2025 2dbc 5d29 39ba 6244 783b
00000060: e8bf 98bb 9cda c53b b0bd f9ba 6360 243c
00000070: fed3 813c

seg.down1.conv.bn.running_var f4 [29]
0.20407824 0.46362615 0.38359925 0.31439707 0.3409743 0.24590914 0.16495714 0.4928333
0.042060424 0.45126686 0.18450813 0.11012727 0.23583792 0.18006848 0.08062118 0.3444962
0.2428428 0.45862037 0.5411461 0.006151443 0.6193921 0.34955177 0.066091806 0.2152731
0.08657175 0.26902917 0.4293885 0.2876261 1.0701268
00000000: e3f9 503e 6860 ed3e 1f67 c43e a7f8 a03e
00000010: 2f94 ae3e 9bcf 7b3e 86ea 283e a554 fc3e
00000020: 8d47 2c3d 730c e73e b3ef 3c3e 688a e13d
00000030: 7f7f 713e df63 383e b81c a53d ce61 b03e
00000040: c8ab 783e 4ad0 ea3e 8d88 0a3f 0b92 c93b
00000050: 7b90 1e3f 73f8 b23e 245b 873d 8d70 5c3e
00000060: 884c b13d 31be 893e cfd8 db3e ba43 933e
00000070: eaf9 883f

seg.conv11.conv1.conv.weight f4 [16, 32, 1, 1]
-0.06816133 -0.10113274 0.03734367 -0.16211669 0.0012982469 -0.040989365 -0.0028356698 -0.042248785
-0.013170472 -0.040636998 0.124428876 0.045695137 0.10452457 -0.015803952 -0.04771852 -0.17101367
0.04662723 -0.11042494 0.10004381 0.107168294 -0.24173826 0.038196914 -0.02472566 0.07013152
-0.13203642 0.05494014 0.024324182 0.03871216 -0.025350524 0.13722265 -0.009384368 0.060565
0.028651468 0.06097826 0.059366338 0.12315371 0.04866651 0.024483152 -0.101000935 0.040230136
-0.02813271 0.012839155 -0.05969454 0.029948357 0.018373812 -0.030598301 0.06846531 0.007381603
0.11562835 0.012278694 0.011824754 0.02499517 0.031406127 0.122570075 0.003501025 0.10816445
0.05764685 0.031617187 -0.024675395 -0.008797663 0.053765304 0.064396285 -0.020125793 -0.07050812
-0.061903175 0.054894734 0.11859332 -0.118103445 -0.0736304 0.008327155 0.12798029 0.09577661
0.025468795 -0.004463273 0.044359136 0.025097245 0.063900284 0.01710131 -0.047049206 0.14988342
-0.09600074 -0.013996558 -0.08024574 0.11977897 -0.06070408 0.04331724 -0.0030239967 0.041097283
0.0046323617 -0.068423405 0.04273747 -0.026572011 0.02143745 0.10576461 0.012632753 -0.05968318
-0.016467394 -0.025970459 -0.017410718 0.017123673 -0.025767026 0.006690531 0.015614347 -0.015751965
-0.009145246 0.017163804 -0.017796645 -0.01273453 0.0008864693 0.044709984 -0.020841174 -0.035642166
0.04993924 0.028823901 0.00064612925 -0.01820542 -0.01983472 0.033932164 -0.024333423 -0.008134675
-0.019405635 -0.022654844 0.03724364 -0.04137743 0.020875148 0.005647391 0.016997049 0.06051604
-0.11681498 -0.076639995 -0.07637025 0.033655632 0.021434102 -0.03364898 0.11195813 0.110116325
0.06345338 -0.026472926 0.019109372 -0.03323395 0.0661239 0.08784692 -0.08367921 0.0153930355
-0.059456196 0.008888968 0.034801573 0.06601107 -0.055600543 0.02537075 -0.018666683 -0.071467094
0.023061017 -0.0030426872 0.0061745103 -0.09947483 0.07138121 -0.079325296 -0.06637402 0.10914455
0.0536339 -0.073928654 0.10713596 0.048002947 -0.08297025 0.02164116 0.08229325 -0.096195154
0.058192883 0.036966007 0.07576053 0.04186231 -0.06942442 -0.012161316 0.045781158 0.03664536
0.07219171 -0.0044303406 -0.09263276 0.03965021 -0.0485753 0.026335722 -0.004093131 0.021986445
-0.09678628 -0.084607825 -0.087913215 0.031378213 0.078642696 -0.12865308 -0.06687605 -0.07633507
0.090790346 -0.044243548 -0.05491272 0.06762387 0.087826334 -0.11363119 0.10626498 0.10318482
-0.006760078 0.022807574 -0.014230841 0.056486927 0.065093316 -0.02265953 0.09326452 0.021290492
-0.15074106 0.044173505 0.0608025 -0.008565984 0.005666498 -0.006653932 -0.0048847636 -0.03346508
-0.038865186 -0.0034640443 0.05285696 0.074124366 0.05224141 0.10115357 0.10721248 0.014690514
-0.03328487 0.08048429 0.0422998 -0.053221524 -0.02637706 -0.12455748 0.04314736 -0.01599404
0.048661772 0.006480894 0.062115062 0.005648098 -0.041528203 -0.059823267 -0.09601396 0.049529623
0.040009506 -0.014781938 -0.086625695 0.09532315 0.001399143 -0.10623546 -0.0032508227 -0.050619457
-0.032783326 -0.061956767 -0.10247156 -0.02707229 -0.034812905 0.05081557 -0.08264996 -0.035733387
00000000: 2b98 8bbd af1e cfbd adf5 183d eb01 26be
00000010: f029 aa3a 77e4 27bd a5d6 39bb 100d 2dbd
00000020: f7c8 57bc fb72 26bd 91d4 fe3d d32a 3b3d
00000030: fa10 d63d 4a77 81bc 7f74 43bd 351e 2fbe
00000040: 32fc 3e3d 7926 e2bd c5e3 cc3d 0d7b db3d
00000050: 3c8a 77be 5e74 1c3d 788d cabc 1da1 8f3d
00000060: 8e34 07be ea08 613d 8243 c73c a490 1e3d
00000070: e7ab cfbc 1884 0c3e e4c0 19bc 0113 783d
00000080: 7cb6 ea3c 57c4 793d 1e2a 733d 0338 fc3d
00000090: 8956 473d e490 c83c 94d9 cebd 5bc8 243d
000000a0: 9276 e6bc 525b 523c 4382 74bd 4256 f53c
000000b0: ad84 963c 4aa9 fabc 8a37 8c3d 60e1 f13b
000000c0: 8ece ec3d 932c 493c 9dbc 413c acc2 cc3c
000000d0: b6a3 003d 0506 fb3d 7471 653b 5385 dd3d
000000e0: 1a1f 6c3d 0681 013d 0e24 cabc 1324 10bc
000000f0: 0239 5c3d 33e2 833d d9de a4bc 9066 90bd
00000100: 2f8e 7dbd 4dd9 603d 0ee1 f23d 38e0 f1bd
00000110: 89cb 96bd 9f6e 083c 440d 033e 8726 c43d
00000120: efa3 d03c a640 92bb edb1 353d bd98 cd3c
00000130: 27de 823d 0c18 8c3c abb6 40bd 0a7b 193e
00000140: 099c c4bd d251 65bc e157 a4bd ad4e f53d
00000150: d7a4 78bd 6b6d 313d 3f2e 46bb a055 283d
00000160: 11cb 973b 9221 8cbd 7c0d 2f3d 8cad d9bc
00000170: 979d af3c 1e9b d83d 9bf9 4e3c 5a76 74bd
00000180: a1e6 86bc 00c0 d4bc eca0 8ebc f246 8c3c
00000190: 5f15 d3bc 3e3c db3b 51d3 7f3c 440a 81bc
000001a0: f1d5 15bc 1b9b 8c3c 45ca 91bc 7da4 50bc
000001b0: f361 683a d121 373d 1cbb aabc 85fd 11bd
000001c0: 178d 4c3d 1a20 ec3c 0061 293a 8823 95bc
000001d0: 6c7c a2bc 74fc 0a3d e356 c7bc 4d47 05bc
000001e0: 91f8 9ebc a796 b9bc c98c 183d 617b 29bd
000001f0: 5c02 ab3c c00d b93b 653d 8b3c abdf 773d
00000200: b13c efbd 6ef5 9cbd 0168 9cbd 7dda 093d
00000210: 9296 af3c 83d3 09bd 4e4a e53d ab84 e13d
00000220: d8f3 813d c0dd d8bc 428b 9c3c 5320 08bd
00000230: f86b 873d 16e9 b33d 0160 abbd 1233 7c3c
00000240: 5788 73bd 09a3 113c 188c 0e3d d030 873d
00000250: 65bd 63bd 52d6 cf3c dfea 98bc 575d 92bd
00000260: 75ea bc3c d267 47bb 8c53 ca3b 76b9 cbbd
00000270: 5030 923d 4d75 a2bd 1aef 87bd 2e87 df3d
00000280: 38af 5b3d e867 97bd 196a db3d bd9e 443d
00000290: 4eec a9bd cd48 b13c 5d89 a83d f701 c5bd
000002a0: a95b 6e3d ab69 173d 5628 9b3d d077 2b3d
000002b0: 642e 8ebd 4240 47bc 0685 3b3d 7219 163d
000002c0: 3fd9 933d 642c 91bb 3fb6 bdbd 4268 223d
000002d0: e5f6 46bd 03be d73c ac1f 86bb eb1c b43c
000002e0: e337 c6bd de46 adbd d80b b4bd 7186 003d
000002f0: 6c0f a13d a2bd 03be 4ff6 88bd 9055 9cbd
00000300: 4af0 b93d b938 35bd 29ec 60bd 627e 8a3d
00000310: 4bde b33d 78b7 e8bd 74a1 d93d 9052 d33d
00000320: a583 ddbb f3d6 ba3c 7928 69bc d65e 673d
00000330: a54f 853d 7ba0 b9bc 7801 bf3d 6669 ae3c
00000340: dd5b 1abe 47ef 343d 0b0c 793d 5758 0cbc
00000350: 08ae b93b 3a09 dabb 5e10 a0bb ae12 09bd
00000360: 1a31 1fbd 0505 63bb 8a80 583d 84ce 973d
00000370: 17fb 553d 9a29 cf3d 3792 db3d 7bb0 703c
00000380: b755 08bd f3d4 a43d 8e42 2d3d d0fe 59bd
00000390: b414 d8bc fe17 ffbd 49bb 303d ef05 83bc
000003a0: 9151 473d ae5d d43b 5d6c 7e3d ae13 b93b
000003b0: 7a19 2abd 3e09 75bd f8a2 c4bd 93df 4a3d
000003c0: 02e1 233d f12f 72bc d068 b1bd c938 c33d
000003d0: 7363 b73a fa91 d9bd c10b 55bb 5956 4fbd
000003e0: cf47 06bd 61c6 7dbd 9cdc d1bd b5c6 ddbc
000003f0: fa97 0ebd fd23 503d 6244 a9bd 2c5d 12bd

seg.conv11.conv1.bn.weight f4 [16]
0.62666386 0.17343824 0.62759596 0.17665102 0.46832174 0.6440243 0.29695174 0.47585726
0.6408885 0.34796026 0.65574944 0.15158904 0.7916875 0.53283405 0.3892534 0.33414048
00000000: 0b6d 203f cb99 313e 21aa 203f 01e4 343e
00000010: dec7 ef3e c7de 243f 0f0a 983e 90a3 f33e
00000020: 4511 243f d927 b23e 32df 273f 283a 1b3e
00000030: 08ac 4a3f d067 083f 394c c73e 7614 ab3e

seg.conv11.conv1.bn.bias f4 [16]
0.03827438 0.021185474 0.06644149 0.0060777804 -0.051426925 0.011062667 -0.0020846806 0.032298498
0.041491345 0.08225712 -0.04097676 0.033329092 0.048123088 0.052794997 -0.018168116 0.02911005
00000000: 99c5 1c3d 298d ad3c 7a12 883d 1e28 c73b
00000010: 0aa5 52bd 3040 353c 239f 08bb 6e4b 043d
00000020: d4f2 293d 6c76 a83d 3fd7 27bd 1684 083d
00000030: b71c 453d 913f 583d 4dd5 94bc 3378 ee3c

seg.conv11.conv1.bn.running_mean f4 [16]
-0.05988934 0.211009 0.14113599 -0.008884424 -0.09896417 -0.028784724 0.1365744 -0.11256015
0.06743876 0.009157981 0.040161397 -0.098586336 -0.06961012 -0.23908362 0.104475744 0.14513232
00000000: 864e 75bd be12 583e f485 103e fa8f 11bc
00000010: baad cabd f1cd ebbc 29da 0b3e f085 e6bd
00000020: 551d 8a3d 5b0b 163c 4780 243d a2e7 c9bd
00000030: c08f 8ebd 56d2 74be 61f7 d53d 919d 143e

seg.conv11.conv1.bn.running_var f4 [16]
0.026492367 0.016688133 0.062303815 0.0029627995 0.053473104 0.020134194 0.011970611 0.058445163
0.067011304 0.0096447095 0.05081991 0.0036885932 0.094068 0.040257692 0.08476778 0.032892246
00000000: 8506 d93c 8db5 883c 4932 7f3d 872b 423b
00000010: 9d06 5b3d 77f0 a43c 6220 443c 3264 6f3d
00000020: 393d 893d d804 1e3c 8a28 503d 53bc 713b
00000030: b9a6 c03d 40e5 243d bb9a ad3d 05ba 063d

seg.conv11.conv2.conv.weight f4 [16, 16, 3, 3]
-0.046853993 0.014373404 0.007864023 0.038524043 0.015989214 0.025445614 -0.00845739 0.059558455
0.021604441 0.023362484 0.0053719464 0.006250996 0.035428062 0.023758713 0.015660483 5.340539e-05
0.029815275 0.0059864516 0.019483564 0.020475069 0.052647427 0.04862791 0.06011691 0.035597984
0.034036495 0.0025866807 -0.02874371 0.010757267 0.002912196 -0.008329579 0.021611167 -0.006814359
-0.01701168 4.303306e-05 -0.029638175 -0.02667806 -0.02831232 0.019988326 -0.011233225 -0.053164262
-0.005044019 -0.02483524 -0.036749296 0.012605831 -0.020810803 -0.006727328 0.052432816 -0.036424883
0.041003715 0.063563086 -0.05126902 -0.02816582 -0.027087724 -0.009952603 0.051768582 0.073943816
0.018674253 -0.0013883159 0.0455277 -0.010342566 -0.02638143 0.04477989 0.021278128 -0.031419545
-0.03567161 0.016887074 -0.024650259 -0.02396526 -0.050970703 -0.023929795 -0.043562643 -0.0425657
0.019393196 -0.0018239154 0.029589472 -0.05368027 0.050233107 0.03827234 -0.026913675 0.03668501
0.02836063 -0.030200727 0.02058197 -0.0069785938 -0.029861657 -0.030410003 0.04254227 0.0453618
0.02158959 0.034207612 0.059189588 0.048092656 0.022793116 0.06693574 -0.033132758 -0.010207413
-0.06907267 0.03793652 -0.040495217 -0.0034430868 0.008700421 0.023835618 0.019691462 0.0034157063
0.0035130382 0.0019851057 0.0061389366 0.017040467 -0.063525066 -0.033144202 -0.0068530925 0.044105604
0.026851527 -0.06153786 0.03918122 -0.009674574 -0.023966832 0.04113419 -0.0189409 -0.016253795
0.0055417353 -0.025363732 -0.0395335 -0.02754419 -0.052362174 -0.00368981 0.010396643 0.029706769
-0.037730183 -0.0024916844 0.058490604 -0.0396964 -0.012251643 -0.03960375 0.020654678 -0.0001202177
-0.04069482 0.06781522 0.008160992 0.030934153 -0.006778483 0.022098258 -0.024917318 0.008800292
0.0125432415 -0.0023549101 -0.014890691 0.0038702583 -0.012168038 -0.0052162237 0.004028669 0.011887271
0.01437992 -0.014885772 -0.0051448597 -0.023850806 -0.0022771934 0.0067824866 -0.010031139 -0.0047292463
0.010413098 -0.0022452476 -0.022069214 -0.019282814 -0.0013937339 -0.0049006157 0.0051492383 0.024507275
-0.0025687576 0.011452242 0.010990831 -0.000882813 -0.004471342 -0.013539103 -0.00060945057 -0.0016021902
-0.009294675 -0.012761818 -0.0102850655 -0.0125119435 -0.0036373178 -0.01272673 -0.017414987 0.00046484335
-0.00907191 -0.0059972424 -0.0066491817 -0.0065440987 0.002499302 0.029083434 0.019016037 0.0142290965
0.025840482 0.009017485 0.009332048 0.0024432577 0.009171964 0.0016062238 0.0060922853 -0.004126187
-0.017665429 0.0106134685 0.0050205886 0.00042206742 -0.0009093898 0.0013461412 0.0024925692 0.00030100913
0.009568349 0.011381635 0.0013614508 0.012160824 0.018605419 0.011594507 0.016114287 0.01941109
-0.0066057486 0.010020629 0.0121828215 -0.0065098046 -0.003799631 0.013446272 0.0050837863 -0.007248665
0.02445478 0.010508592 -0.0063054785 -0.018793272 0.011306401 -0.0022990687 -0.0005819115 0.02649273
0.018705275 0.002584607 -0.021652274 -0.018129269 -0.028468244 -0.031072356 -0.010384645 -0.03208711
-0.035811502 -0.0139448065 -0.040730324 0.0024325326 0.007262174 0.0073074517 0.0014683523 0.007119046
0.006367867 -0.005124496 -0.0027198507 0.0039169085 -0.010946717 -0.006837612 -0.00051671866 -0.0026146162
00000000: f9e9 3fbd 6d7e 6b3c 1ad8 003c 63cb 1d3d
00000010: d0fb 823c 5273 d03c dd90 0abc 91f3 733d
00000020: ccfb b03c ae62 bf3c 2707 b03b 28d5 cc3b
00000030: 041d 113d a2a1 c23c 6a4a 803c 9aff 5f38
00000040: 2a3f f43c ff29 c43b ff9b 9f3c 55bb a73c
00000050: d4a4 573d 0f2e 473d 263d 763d 31cf 113d
00000060: da69 0b3d 4d85 293b ee77 ebbc 3f3f 303c
00000070: 8bda 3e3b c978 08bc e709 b13c fd4a dfbb
00000080: 145c 8bbc 657e 3438 c2cb f2bc f28b dabc
00000090: 3def e7bc 8fbe a33c 900b 38bc c5c2 59bd
000000a0: 4c48 a5bb 4673 cbbc 6e86 16bd b088 4e3c
000000b0: 6b7b aabc eb70 dcbb cbc3 563d 4232 15bd
000000c0: 83f3 273d 5d2d 823d 77ff 51bd 01bc e6bc
000000d0: 13e7 ddbc 3e10 23bc 4b0b 543d db6f 973d
000000e0: bffa 983c 27f8 b5ba 417b 3a3d de73 29bc
000000f0: de1d d8bc 1e6b 373d 784f ae3c c8b1 00bd
00000100: 651c 12bd c356 8a3c 57ef c9bc cb52 c4bc
00000110: a8c6 50bd 6b08 c4bc be6e 32bd 5f59 2ebd
00000120: 7bde 9e3c 7210 efba 9f65 f23c d8df 5bbd
00000130: 3bc1 4d3d 75c3 1c3d 117a dcbc 0543 163d
00000140: 8d54 e83c 8467 f7bc 859b a83c b0ac e4bb
00000150: 6fa0 f4bc 661e f9bc ce40 2e3d 4bcd 393d
00000160: a7dc b03c 481d 0c3d c870 723d cefc 443d
00000170: a1b8 ba3c 9b15 893d 37b6 07bd fe3c 27bc
00000180: f975 8dbd 5363 1b3d 50de 25bd 69a5 61bb
00000190: 368c 0e3c ea42 c33c fd4f a13c 0bda 5f3b
000001a0: 003b 663b 8c18 023b 2229 c93b 7398 8b3c
000001b0: 6e19 82bd 37c2 07bd e88f e0bb 14a8 343d
000001c0: bcf7 db3c 200f 7cbd 7d7c 203d 1b82 1ebc
000001d0: 1756 c4bc 537c 283d f229 9bbc ae26 85bc
000001e0: 7297 b53b 9ac7 cfbc e1ed 21bd 5aa4 e1bc
000001f0: b879 56bd bdd0 71bb ae56 2a3c 9c5b f33c
00000200: f78a 1abd 874b 23bb d893 6f3d b198 22bd
00000210: 1ebb 48bc 8b37 22bd 0034 a93c 631d fcb8
00000220: 9daf 26bd b5e2 8a3d aeb5 053c 9f69 fd3c
00000230: 091e debb 6807 b53c 671f ccbc 1a2f 103c
00000240: 2b82 4d3c d654 1abb 16f8 73bc 29a4 7d3b
00000250: 735c 47bc dbec aabb ed02 843b d4c2 423c
00000260: c299 6b3c 74e3 73bc 3696 a8bb c462 c3bc
00000270: f73c 15bb 9f3f de3b a559 24bc cbf7 9abb
00000280: b39b 2a3c 0125 13bb 7fca b4bc fef6 9dbc
00000290: f3ad b6ba 5895 a0bb f1ba a83b 7bc3 c83c
000002a0: 9a58 28bb 2fa2 3b3c e312 343c 946c 67ba
000002b0: 5684 92bb 1dd3 5dbc 89c3 1fba 9500 d2ba
000002c0: b148 18bc f216 51bc b182 28bc e5fe 4cbc
000002d0: 1160 6ebb c683 50bc e0a9 8ebc 38b6 f339
000002e0: 59a2 14bc 8484 c4bb 61e1 d9bb e16f d6bb
000002f0: 54cb 233b 6240 ee3c 85c7 9b3c 2821 693c
00000300: 6baf d33c 13be 133c 72e5 183c 101f 203b
00000310: 0146 163c ed87 d23a cba1 c73b f734 87bb
00000320: 17b7 90bc 1de4 2d3c c083 a43b ee48 dd39
00000330: 1e64 6eba 0171 b03a 5f5a 233b c3d0 9d39
00000340: 91c4 1c3c 0a7a 3a3c b572 b23a 313e 473c
00000350: 646a 983c e3f6 3d3c 1c02 843c 0204 9f3c
00000360: 0975 d8bb 902d 243c 759a 473c 3350 d5bb
00000370: 3b03 79bb c14d 5c3c e495 a63b 3686 edbb
00000380: 6455 c83c 3b2c 2c3c 309e cebb 59f4 99bc
00000390: 7c3e 393c f9ab 16bb 6b8b 18ba 4807 d93c
000003a0: ce3b 993c 8362 293b 1c60 b1bc d583 94bc
000003b0: 3c36 e9bc 748b febc 5c24 2abc c66d 03bd
000003c0: 15af 12bd c278 64bc d7d4 26bd 206b 1f3b
000003d0: 88f7 ed3b 5973 ef3b ba75 c03a e346 e93b
000003e0: 8aa9 d03b 63eb a7bb 863f 32bb 6959 803b
000003f0: dc59 33bc 0c0e e0bb 6774 07ba fb59 2bbb

seg.conv11.conv2.bn.weight f4 [16]
0.32169876 0.11987049 0.307845 0.2660321 0.48677373 0.21909559 0.1750471 0.18909098
0.49877393 0.17839684 0.22631904 0.57421607 0.32332727 0.5178313 0.4510988 0.59195757
00000000: b3b5 a43e a97e f53d dc9d 9d3e 5c35 883e
00000010: 683a f93e 985a 603e 8c3f 333e 11a1 413e
00000020: 4c5f ff3e a9ad 363e 2ec0 673e d3ff 123f
00000030: 278b a53e 9890 043f 6cf6 e63e 888a 173f

seg.conv11.conv2.bn.bias f4 [16]
0.015326199 0.026297685 0.051420398 0.09337185 0.030729987 0.023980489 0.09563337 0.029607957
-0.009322113 0.067139216 0.122537926 0.018838646 0.062950246 -0.007570543 0.06821987 -0.032906644
00000000: bd1a 7b3c 3e6e d73c 329e 523d be39 bf3d
00000010: 74bd fb3c bb72 c43c 6edb c33d 638c f23c
00000020: c7bb 18bc 4980 893d 2af5 fa3d 8153 9a3c
00000030: 0fec 803d 5112 f8bb dcb6 8b3d 1ec9 06bd

seg.conv11.conv2.bn.running_mean f4 [16]
0.067883134 -0.038508777 -0.02169639 -0.0697145 -0.033942714 -0.016639654 -0.0054729716 0.0190113
0.07576733 0.015415911 0.023924462 -0.029148776 -0.15010239 -0.061298724 -0.06631661 0.0038588396
00000000: 5006 8b3d 61bb 1dbd a1bc b1bc 7ac6 8ebd
00000010: 8407 0bbd e24f 88bc 9d56 b3bb 96bd 9b3c
00000020: e72b 9b3d 0493 7c3c 3cfd c33c 6ac9 eebc
00000030: 71b4 19be 5f14 7bbd 01d1 87bd 96e4 7c3b

seg.conv11.conv2.bn.running_var f4 [16]
0.029681224 0.0041789236 0.016385376 0.009319129 0.021883 0.008297346 0.0043938435 0.003736428
0.02314711 0.0018813941 0.012690833 0.027760107 0.017060282 0.032781683 0.01466114 0.023065018
00000000: 0a26 f33c 5aef 883b a03a 863c 43af 183c
00000010: fa43 b33c 97f1 073c 3bfa 8f3b dcde 743b
00000020: 029f bd3c 1c99 f63a 36ed 4f3c 2a69 e33c
00000030: 01c2 8b3c 1646 063d 4735 703c d9f2 bc3c

seg.conv11.conv3.conv.weight f4 [32, 16, 3, 3]
-0.008280428 -0.010805408 -0.00059672847 -0.051657308 -0.0005923357 0.000991759 -0.037630048 -0.048794065
-0.02019912 -0.02686182 -0.039171536 -0.022947684 -0.016852623 -0.040790156 -0.018322196 -0.019217608
-0.040017996 -0.024340661 0.026304767 0.0202115 0.003050921 0.046409186 -0.024391325 0.058567453
0.032787062 -0.0106819775 -0.017516438 0.011824602 0.013744125 -0.0024078123 -0.009865238 0.030669648
0.017844127 -0.0027335167 -0.0010373762 0.028686278 -0.034285095 0.0056969617 -0.04664334 -0.0478284
0.014082389 -0.01945186 -0.0030553967 -0.031356387 -0.009306869 -0.0018152626 0.025078265 0.04020356
-0.0018973931 -0.039131332 -0.01350642 0.006190143 0.012080718 0.015595876 -0.014578517 0.011741728
0.034646474 0.012858002 -0.02549714 0.07785907 -0.04669359 0.030677551 0.063805684 -0.00042540432
-0.02889957 -0.032421943 0.003389163 -0.020652518 -0.060718607 0.008508499 -0.01203577 -0.07317622
0.015555439 -0.048605774 -0.019473918 0.04232757 -0.026633684 -0.04215376 0.002869173 -0.005141218
-0.032975607 -0.022428015 -0.0065865386 -0.008056874 0.027539873 -0.019251123 -0.01274285 0.0017219348
-0.012735114 0.02403994 0.022128427 0.054516707 -0.0026886505 0.04742746 0.041621666 -0.0019587309
-0.0028833756 0.039691836 0.024944456 -0.010015463 -0.04104196 0.034110382 -0.03215711 -0.030679816
-0.019783223 0.009674471 0.020557208 -0.008791696 0.0025627404 0.02159872 0.005589305 0.029565318
0.018090826 -0.07362124 -0.014937758 -0.039076697 0.027110728 0.026743565 0.026505316 0.05968125
-0.03203652 -0.049994078 -0.004672579 0.0054362617 -0.018712673 0.020112194 0.021301419 -0.01737669
-0.05721355 0.044407662 0.0583313 0.04410612 0.029895755 0.049356557 0.037248854 -0.013427952
-0.06300789 -0.10241373 -0.027159773 -0.04695384 -0.030790271 -0.010043998 -0.023491729 0.008259594
0.03158364 -0.025238486 -0.018673172 -0.022924205 -0.021457165 0.006513566 -0.016845955 0.008950322
-0.016685663 -0.006051023 0.002339424 0.018264065 -0.011099584 0.0030981805 0.018443149 -0.012498547
8.373837e-05 0.0034438542 0.020567806 -0.0022018373 -0.021891857 0.01352391 0.004650348 -0.05923197
-0.00875992 0.0071223844 -0.012514191 0.0038222226 0.00041116678 -0.003906198 -0.023943527 -0.05257301
-0.007933799 -0.011815963 0.0074708834 0.023751745 0.0010890538 -0.008617758 0.010191844 0.036696017
-0.019827293 -0.056876108 -0.011211249 0.049103532 -0.002699127 -0.022858955 -0.010721534 -0.017420331
-0.0026789678 -0.006764144 -0.021343311 0.0034006042 -0.0018035624 0.0040858863 -0.020499019 -0.002041441
0.0004031769 -0.004539664 0.028554836 -0.011081703 -0.018187076 -0.028758708 0.0061366707 0.005109373
-0.0137641085 -0.0009898432 0.0044663395 -0.0013310217 -0.00195874 -0.011150494 0.00989915 0.00042599338
0.0039422456 0.0152309425 0.024041155 -0.014607527 -0.017503524 -0.009622635 0.005816055 -0.02089434
-0.0073039103 0.0008567502 0.014992218 -0.0050613093 0.0055847117 0.014721293 -3.7490423e-05 0.012683686
0.015135561 0.005877143 0.012040842 -0.006149309 -0.03520163 -0.00634218 0.0024885174 0.02360068
0.0115706865 0.014762098 0.03697711 -0.007326591 -0.011393058 -0.02772988 -0.019361919 -0.011027413
0.011013239 0.002173754 -0.030380797 -0.003754324 -0.0015715902 0.012032058 0.062187016 -0.046151273
00000000: a2aa 07bc 2a09 31bc c56d 1cba 9d96 53bd
00000010: fa46 1bba e9fd 813a f721 1abd 49dc 47bd
00000020: a078 a5bc 520d dcbc 5572 20bd c8fc bbbc
00000030: 830e 8abc 9413 27bd 6e18 96bc 3f6e 9dbc
00000040: e9e9 23bd 1166 c7bc 187d d73c 9692 a53c
00000050: f6f1 473b 8f17 3e3d 51d0 c7bc 6de4 6f3d
00000060: ba4b 063d 7603 2fbc a27e 8fbc fabb 413c
00000070: 0a2f 613c 63cc 1dbb cfa1 21bc ea3e fb3c
00000080: d92d 923c cd24 33bb 92f8 87ba 7cff ea3c
00000090: 876e 0cbd 94ad ba3b 160d 3fbd b6e7 43bd
000000a0: d2b9 663c 8259 9fbc 0d3d 48bb 8e6f 00bd
000000b0: d67b 18bc 1bee edba ef70 cd3c 7dac 243d
000000c0: f3b1 f8ba 2d48 20bd 084a 5dbc afd6 ca3b
000000d0: 34ee 453c d885 7f3c bbda 6ebc 6060 403c
000000e0: 76e9 0d3d 5faa 523c 61df d0bc 9374 9f3d
000000f0: c741 3fbd 7d4f fb3c 8eac 823d cd08 dfb9
00000100: cbbe ecbc dfcc 04bd b81c 5e3b 782f a9bc
00000110: 13b4 78bd 3b67 0b3c ae31 45bc 6add 95bd
00000120: 3ddc 7e3c d916 47bd c487 9fbc ad5f 2d3d
00000130: e22e dabc 6ca9 2cbd bc08 3c3b aa77 a8bb
00000140: 6e11 07bd f5ba b7bc e4d3 d7bb fb00 04bc
00000150: 4d9b e13c 88b4 9dbc 63c7 50bc 8bb2 e13a
00000160: f1a6 50bc 69ef c43c ad46 b53c e94c 5f3d
00000170: 1234 30bb 4c43 423d 7b7b 2a3d 0d5e 00bb
00000180: 04f7 3cbb e893 223d 5158 cc3c e617 24bc
00000190: 9d1b 28bd 54b7 0b3d 2cb7 03bd 3d54 fbbc
000001a0: 6d10 a2bc ac81 1e3c 9767 a83c 0c0b 10bc
000001b0: a6f3 273b cdef b03c 7d26 b73b f732 f23c
000001c0: 3633 943c bcc6 96bd 80bd 74bc e30e 20bd
000001d0: 5117 de3c 5215 db3c ad21 d93c 5474 743d
000001e0: ba38 03bd 97c6 4cbd 6f1c 99bb ab22 b23b
000001f0: 524b 99bc 54c2 a43c 5080 ae3c 8f59 8ebc
00000200: c158 6abd cfe4 353d cdec 6e3d 9ea8 343d
00000210: f1e7 f43c 1a2a 4a3d 4192 183d ea00 5cbc
00000220: 480a 81bd 4abe d1bd 2c7e debc ab52 40bd
00000230: e13b fcbc 958f 24bc ba71 c0bc 4053 073c
00000240: d95d 013d f1c0 cebc 7bf8 98bc 8bcb bbbc
00000250: f0c6 afbc c06f d53b 8700 8abc 5fa4 123c
00000260: 5fb0 88bc a947 c6bb 0651 193b 859e 953c
00000270: 08db 35bc d80a 4b3b 1616 973c b5c6 4cbc
00000280: b29c af38 49b2 613b d17d a83c b34c 10bb
00000290: 8d56 b3bc 6493 5d3c f261 983b 399d 72bd
000002a0: c485 0fbc e462 e93b 5208 4dbc 417e 7a3b
000002b0: df91 d739 21ff 7fbb 3725 c4bc cc56 57bd
000002c0: c4fc 01bc be97 41bc 50ce f43b 0593 c23c
000002d0: 95be 8e3a 7f31 0dbc b1fb 263c 904e 163d
000002e0: d96c a2bc ecf6 68bd 63af 37bc c920 493d
000002f0: d6e3 30bb b442 bbbc 5fa9 2fbc 15b5 8ebc
00000300: 9f91 2fbb c1a5 ddbb 2bd8 aebc acdc 5e3b
00000310: 8365 ecba e6e2 853b 8fed a7bc b2c9 05bb
00000320: 7d61 d339 76c1 94bb d5eb e93c 0890 35bc
00000330: 10fd 94bc 6297 ebbc 2016 c93b 876c a73b
00000340: db82 61bc a0bd 81ba 5f5a 923b ad75 aeba
00000350: 345e 00bb 90b0 36bc 0b30 223c dd57 df39
00000360: f42d 813b 348b 793c f5f1 c43c 6954 6fbc
00000370: 8d63 8fbc 42a8 1dbc 9b94 be3b 9b2a abbc
00000380: a455 efbb 8897 603a eca1 753c 57d9 a5bb
00000390: f5ff b63b 9431 713c 093f 1db8 3ccf 4f3c
000003a0: 25fb 773c 0c95 c03b f446 453c 2580 c9bb
000003b0: 962f 10bd 10d2 cfbb 6516 233b 3756 c13c
000003c0: fa92 3d3c badc 713c 4f75 173d e613 f0bb
000003d0: f3a9 3abc c629 e3bc e39c 9ebc 53ac 34bc
000003e0: df70 343c 8a75 0e3b 26e1 f8bc 1b0b 76bb
000003f0: d1fd cdba 1c22 453c d0b7 7e3d 1e09 3dbd

seg.conv11.conv3.bn.weight f4 [32]
0.6060214 0.32411987 0.24653588 0.2451288 0.098735824 0.12780695 0.30255365 0.18731016
0.53922063 0.1475088 0.13017912 0.15413356 0.2759321 0.3283808 0.17134821 0.56321585
0.3986951 0.12600303 0.3354387 0.22903605 0.5095526 0.23709887 0.13447694 0.5256079
0.26313564 0.16001257 0.21895872 0.50422114 0.62731916 0.42678604 0.55287796 0.1660964
00000000: 3824 1b3f 0af3 a53e e773 7c3e 0b03 7b3e
00000010: 0236 ca3d d3df 023e 50e8 9a3e 3cce 3f3e
00000020: 5d0a 0a3f 8c0c 173e ad4d 053e 30d5 1d3e
00000030: f946 8d3e 8721 a83e e875 2f3e ea2e 103f
00000040: c421 cc3e f006 013e 9fbe ab3e 6d88 6a3e
00000050: 0a72 023f 0cca 723e 53b4 093e 3d8e 063f
00000060: b7b9 863e 56da 233e b736 603e a314 013f
00000070: fd97 203f b383 da3e 6989 0d3f 2d15 2a3e

seg.conv11.conv3.bn.bias f4 [32]
0.11858224 0.09424334 0.10742062 0.025865836 0.052930143 0.06691768 0.013880313 0.05197715
-0.023289243 -0.00036764963 0.022625502 0.0037740471 -0.0032076887 -0.0051768953 0.08375255 0.034985576
-0.0051846746 0.030022457 0.04527901 0.054309502 -0.003676916 -0.004940003 0.03615536 0.00671783
0.0029091437 0.038643327 -0.029828498 0.07064835 0.029458832 -0.023663169 0.046728764 0.008359866
00000000: 3fdb f23d a702 c13d 58ff db3d 97e4 d33c
00000010: 47cd 583d 230c 893d 416a 633c fee5 543d
00000020: 15c9 bebc 19c1 c0b9 1e59 b93c 0156 773b
00000030: 1638 52bb f2a2 a9bb 7586 ab3d 094d 0f3d
00000040: 34e4 a9bb a8f1 f53c 7c76 393d a473 5e3d
00000050: 6af8 70bb c0df a1bb a517 143d 3e21 dc3b
00000060: 55a7 3e3b 7748 1e3d e55a f4bc 15b0 903d
00000070: a653 f13c 43d9 c1bc a966 3f3d d2f7 083c

seg.conv11.conv3.bn.running_mean f4 [32]
-0.047031365 0.016309861 0.0048040207 -0.09958154 -0.07269729 -0.026621543 -0.09408145 -0.030919261
-0.04431784 -0.10492797 -0.07192903 0.018835405 -0.024267917 -0.17677237 -0.10167769 -0.10075218
-0.066308506 -0.0053754854 -0.06197652 -0.006052255 -0.09925207 -0.16272628 -0.062906295 -0.13715121
-0.09476381 0.013313499 0.051779814 -0.1520798 -0.08221412 -0.04158001 -0.02668453 0.048884585
00000000: f6a3 40bd 429c 853c 0c6b 9d3b 68f1 cbbd
00000010: 51e2 94bd 6c15 dabc c6ad c0bd 644a fdbc
00000020: a086 35bd 7ae4 d6bd 874f 93bd b54c 9a3c
00000030: 83cd c6bc d103 35be 653c d0bd 2957 cebd
00000040: c1cc 87bd d724 b0bb 17db 7dbd ff51 c6bb
00000050: ab44 cbbd b8a1 26be 04d5 80bd 5e71 0cbe
00000060: 8713 c2bd dd20 5a3c 1217 543d cfba 1bbe
00000070: e05f a8bd cd4f 2abd 8499 dabc 343b 483d

seg.conv11.conv3.bn.running_var f4 [32]
0.014060246 0.0049047926 0.0024085569 0.005852282 0.0022318235 0.0009543338 0.00777643 0.0028914788
0.013633144 0.0018854646 0.0022802653 0.0026906205 0.00928061 0.009671157 0.003001217 0.013366986
0.012509354 0.0030793028 0.005861284 0.0027125075 0.012168152 0.007971161 0.0015419379 0.011537534
0.0061196666 0.0016862161 0.008629352 0.014041844 0.013362773 0.009598046 0.011355805 0.0021277564
00000000: f25c 663c 62b8 a03b e1d8 1d3b 80c4 bf3b
00000010: c943 123b 422c 7a3a 6cd1 fe3b f77e 3d3b
00000020: 8d5d 5f3c b221 f73a 8170 153b 1f55 303b
00000030: b30d 183c c673 1e3c 11b0 443b 3401 5b3c
00000040: 09f4 4c3c 21ce 493b 0410 c03b 53c4 313b
00000050: ee5c 473c 7999 023c da1a ca3a ed07 3d3c
00000060: 7c87 c83b 0604 dd3a 2062 0d3c c30f 663c
00000070: 88ef 5a3c 1f41 1d3c b30d 3a3c d471 0b3b

seg.conv11.bn.weight f4 [32]
0.7220906 0.6583925 0.34656298 0.09126133 0.9442433 0.98375607 0.8690279 0.48171496
0.48229676 0.13415468 0.88353807 0.7347884 0.5915407 0.26672667 0.06757313 0.5766244
0.019196928 0.94926447 0.19652838 0.7185452 0.043335617 0.14884317 0.50612926 0.66582346
0.11303574 0.36081642 0.7240083 0.78282255 0.35521805 0.56170815 0.089380085 0.39568537
00000000: eeda 383f 698c 283f b470 b13e 38e7 ba3d
00000010: eeb9 713f 70d7 7b3f 9d78 5e3f 58a3 f63e
00000020: 9aef f63e d85f 093e 8d2f 623f 181b 3c3f
00000030: 366f 173f 6690 883e c863 8a3d a89d 133f
00000040: e042 9d3c ff02 733f bc3e 493e 94f2 373f
00000050: b080 313d 586a 183e b091 013f 6873 2a3f
00000060: 487f e73d eebc b83e 9c58 393f 0f67 483f
00000070: 24df b53e 1bcc 0f3f e80c b73d 4697 ca3e

seg.conv11.bn.bias f4 [32]
0.0 0.0 0.0 0.0 0.0 0.0 0.0 0.0
0.0 0.0 0.0 0.0 0.0 0.0 0.0 0.0
0.0 0.0 0.0 0.0 0.0 0.0 0.0 0.0
0.0 0.0 0.0 0.0 0.0 0.0 0.0 0.0
00000000: 0000 0000 0000 0000 0000 0000 0000 0000
00000010: 0000 0000 0000 0000 0000 0000 0000 0000
00000020: 0000 0000 0000 0000 0000 0000 0000 0000
00000030: 0000 0000 0000 0000 0000 0000 0000 0000
00000040: 0000 0000 0000 0000 0000 0000 0000 0000
00000050: 0000 0000 0000 0000 0000 0000 0000 0000
00000060: 0000 0000 0000 0000 0000 0000 0000 0000
00000070: 0000 0000 0000 0000 0000 0000 0000 0000

seg.conv11.bn.running_mean f4 [32]
0.0 0.0 0.0 0.0 0.0 0.0 0.0 0.0
0.0 0.0 0.0 0.0 0.0 0.0 0.0 0.0
0.0 0.0 0.0 0.0 0.0 0.0 0.0 0.0
0.0 0.0 0.0 0.0 0.0 0.0 0.0 0.0
00000000: 0000 0000 0000 0000 0000 0000 0000 0000
00000010: 0000 0000 0000 0000 0000 0000 0000 0000
00000020: 0000 0000 0000 0000 0000 0000 0000 0000
00000030: 0000 0000 0000 0000 0000 0000 0000 0000
00000040: 0000 0000 0000 0000 0000 0000 0000 0000
00000050: 0000 0000 0000 0000 0000 0000 0000 0000
00000060: 0000 0000 0000 0000 0000 0000 0000 0000
00000070: 0000 0000 0000 0000 0000 0000 0000 0000

seg.conv11.bn.running_var f4 [32]
1.0 1.0 1.0 1.0 1.0 1.0 1.0 1.0
1.0 1.0 1.0 1.0 1.0 1.0 1.0 1.0
1.0 1.0 1.0 1.0 1.0 1.0 1.0 1.0
1.0 1.0 1.0 1.0 1.0 1.0 1.0 1.0
00000000: 0000 803f 0000 803f 0000 803f 0000 803f
00000010: 0000 803f 0000 803f 0000 803f 0000 803f
00000020: 0000 803f 0000 803f 0000 803f 0000 803f
00000030: 0000 803f 0000 803f 0000 803f 0000 803f
00000040: 0000 803f 0000 803f 0000 803f 0000 803f
00000050: 0000 803f 0000 803f 0000 803f 0000 803f
00000060: 0000 803f 0000 803f 0000 803f 0000 803f
00000070: 0000 803f 0000 803f 0000 803f 0000 803f

seg.conv12.conv1.conv.weight f4 [16, 32, 1, 1]
0.055125926 -0.084024124 0.03163792 0.018718796 0.0738463 -0.035147827 -0.055475976 0.0074687665
-0.045085926 -0.028552722 0.07785796 0.039556872 0.026683345 0.06272141 -0.03945862 -0.104817085
-0.071845256 0.03198109 0.022785027 -0.026009832 -0.007520345 -0.03174785 0.050149675 -0.035729673
0.04793155 0.0020064735 -0.055433378 -0.115321055 -0.02313034 0.03144664 0.057669856 0.03758899
-0.08516171 -0.045488376 0.033798102 0.068874285 0.05873427 0.05827797 -0.0512807 -0.07237639
0.05606801 -0.037273668 0.040488128 -0.058405742 -0.011029663 0.010170932 -0.034211673 0.04210987
-0.04074466 0.018537799 0.10665805 -0.20296685 0.07535725 -0.018639 -0.015693933 0.035154916
0.03076149 0.011794039 0.064835675 0.01638047 -0.05305533 -0.16087478 -0.14508642 0.019953653
0.060920846 0.0326437 -0.1270195 -0.07030693 -0.02951323 0.061133977 0.13546216 0.05478305
-0.052484438 -0.054030936 0.08848009 -0.02300917 0.039741702 -0.15443982 0.032295715 0.019645156
-0.09673736 0.12397934 0.07700707 -0.11264485 0.08966846 -0.09601474 -0.002804548 -0.054756984
0.0053312103 0.010811583 0.031934142 0.034815285 0.009877773 0.07243072 0.018017123 -0.034787923
-0.11850619 -0.022728773 0.034782805 -0.0028637932 -0.1831398 -0.006458707 0.007977395 -0.12106884
-0.08386818 0.04567545 0.13862005 0.11985683 0.009379364 0.027670488 0.06354641 -0.106862485
0.08207149 0.06457075 0.03869846 0.08108586 0.11610024 0.19231586 -0.040979594 0.005794817
0.0628408 -0.09261416 0.016158229 0.080770195 0.05576948 -0.05306481 0.10824849 0.12811282
-0.056378745 -0.004925952 -0.06671868 -0.031143472 0.018039413 0.041858047 0.06585234 0.048406247
0.005850938 0.05510367 0.14597471 -0.03906113 0.00087239273 0.004791331 -0.041682165 -0.036298804
0.04759507 -0.047831155 0.14716715 -0.061526027 0.036109935 0.17441793 0.007898604 -0.022914814
0.115249276 -0.036580972 0.10598918 0.049083196 -0.026621696 0.07615563 -0.07189951 -0.009224639
-0.07085824 0.07567784 -0.091992244 0.06929137 -0.051632863 -0.039796785 0.04108443 0.10693563
-0.08756469 0.027671421 -0.044325355 -0.08027783 0.065973416 0.10719689 -0.0035571544 -0.08120998
0.013394903 -0.041688424 0.013257901 -0.010719403 -0.039493106 -0.15779768 -0.007897211 0.11408764
-0.049560625 0.05105846 0.007243439 -0.047717515 0.058658566 0.063937336 -0.094918884 0.092800066
0.0986677 0.08506497 -0.14641856 -0.13136113 0.032770943 -0.00034815312 0.053156428 -0.03234501
0.009617074 0.08439704 -0.17259787 -0.060523383 -0.05581276 -0.07865941 0.11040843 -0.059543855
0.08361397 -0.108539626 0.10467094 -0.14343406 0.01335402 -0.17756751 -0.009398081 0.0051027113
-0.108553484 0.01421057 -0.16500248 0.027886588 -0.077656075 -0.06303169 -0.0046576704 0.057433892
-0.0720303 -0.015273052 -0.04977808 0.09897547 -0.116937876 -0.027155707 0.12628345 0.027694654
0.04443791 -0.012627861 -0.030780477 -0.039993558 0.07329352 -0.095188946 -0.079328194 0.060058255
-0.044418704 0.039496455 -0.105399095 -0.12952559 0.015876196 0.062003978 0.024113681 0.039073493
-0.050736208 -0.04596392 0.035215832 0.1098726 -0.0062665534 0.07406601 0.18477164 0.07925216
00000000: b9cb 613d d714 acbd c396 013d 2958 993c
00000010: bb3c 973d 2bf7 0fbd c73a 63bd 8ebc f43b
00000020: 05ac 38bd 66e7 e9bc fe73 9f3d 6306 223d
00000030: 0897 da3c 1574 803d 5d9f 21bd 57aa d6bd
00000040: 9b23 93bd 9afe 023d aaa7 ba3c 9212 d5bc
00000050: 3a6d f6bb 090a 02bd bf69 4d3d 4759 12bd
00000060: df53 443d 0a7f 033b 1c0e 63bd 722d ecbd
00000070: d77b bdbc 31ce 003d 3a37 6c3d eaf6 193d
00000080: 4369 aebd 0552 3abd e16f 0a3d f60d 8d3d
00000090: 5993 703d e1b4 6e3d b60b 52bd 133a 94bd
000000a0: 92a7 653d 46ac 18bd e1d6 253d dc3a 6fbd
000000b0: c2b5 34bc fba3 263c 8a21 0cbd 667b 2c3d
000000c0: dfe3 26bd 95dc 973c 896f da3d 8bd6 4fbe
000000d0: e754 9a3d d1b0 98bc 9090 80bc 9afe 0f3d
000000e0: 85ff fb3c c93b 413c 91c8 843d 5630 863c
000000f0: 8c50 59bd 5cbc 24be 8991 14be d875 a33c
00000100: 2388 793d 66b5 053d 6611 02be 14fd 8fbd
00000110: bbc5 f1bc 9f67 7a3d 98b6 0a3e 3164 603d
00000120: ecf9 56bd 8b4f 5dbd 0d35 b53d ba7d bcbc
00000130: 32c8 223d 7925 1ebe 8348 043d e1ee a03c
00000140: 3d1e c6bd e1e8 fd3d e2b5 9d3d 58b2 e6bd
00000150: 19a4 b73d 60a3 c4bd 82cc 37bb dc48 60bd
00000160: 6fb1 ae3b 1123 313c 60cd 023d 799a 0e3d
00000170: 62d6 213c 8f56 943d a598 933c c87d 0ebd
00000180: 60b3 f2bd b131 babc 6a78 0e3d 7aae 3bbb
00000190: 0089 3bbe 90a3 d3bb 9fb3 023c f1f2 f7bd
000001a0: 15c3 abbd 2e16 3b3d 6af2 0d3e 7f77 f53d
000001b0: e7ab 193c 38ad e23c 9f24 823d b8da dabd
000001c0: 1915 a83d ab3d 843d 4782 1e3d 5810 a63d
000001d0: f6c5 ed3d 73ee 443e 38da 27bd 73e2 bd3b
000001e0: adb2 803d 7eac bdbd 435e 843c d86a a53d
000001f0: 8a6e 643d 7c5a 59bd 62b1 dd3d 0230 033e
00000200: 66ed 66bd e169 a1bb cea3 88bd 9820 ffbc
00000210: 64c7 933c 5873 2b3d 97dd 863d a145 463d
00000220: 3ab9 bf3b 63b4 613d 657a 153e 90fe 1fbd
00000230: 49b1 643a 9900 9d3b ebba 2abd 0eae 14bd
00000240: 0cf3 423d 9aea 43bd fcb2 163e b702 7cbd
00000250: 03e8 133d 9d9a 323e 2569 013c d9b7 bbbc
00000260: d007 ec3d eed5 15bd db10 d93d 760b 493d
00000270: be15 dabc 7cf7 9b3d 0d40 93bd f122 17bc
00000280: 201e 91bd fcfc 9a3d 6e66 bcbd a2e8 8d3d
00000290: fb7c 53bd f401 23bd 2648 283d 1101 db3d
000002a0: 1e55 b3bd 2daf e23c 818e 35bd b468 a4bd
000002b0: 121d 873d 0b8a db3d 261f 69bb 6b51 a6bd
000002c0: 4c76 5b3c 7bc1 2abd ab37 593c 6fa0 2fbc
000002d0: 86c3 21bd b795 21be 4e63 01bc c8a6 e93d
000002e0: 1500 4bbd ad22 513d 5f5a ed3b 7173 43bd
000002f0: f743 703d 94f1 823d d564 c2bd f60d be3d
00000300: 4b12 ca3d 8b36 ae3d bfee 15be 8883 06be
00000310: d33a 063d 5288 b6b9 8eba 593d 347c 04bd
00000320: ef90 1d3c 5bd8 ac3d 7fbd 30be 5ee7 77bd
00000330: ec9b 64bd 2f18 a1bd d11d e23d 42e4 73bd
00000340: cd3d ab3d 064a debd b85d d63d 61e0 12be
00000350: d2ca 5a3c 42d4 35be 69fa 19bc a534 a73b
00000360: 4a51 debd 73d3 683c 69f6 28be 6a72 e43c
00000370: 260a 9fbd c216 81bd 5f9f 98bb cd3f 6b3d
00000380: 9f84 93bd d33b 7abc 1ae4 4bbd a7b3 ca3d
00000390: 207d efbd a575 debc 7350 013e e6df e23c
000003a0: 8704 363d 17e5 4ebc 5727 fcbc 49d0 23bd
000003b0: ea1a 963d 6cf2 c2bd d276 a2bd a5ff 753d
000003c0: 63f0 35bd 09c7 213d 7bdb d7bd 5ba2 04be
000003d0: cc0e 823c e2f7 7d3d 0e8a c53c 870b 203d
000003e0: c5d0 4fbd aa44 3cbd 7a3e 103d e304 e13d
000003f0: a957 cdbb ecaf 973d c734 3d3e f54e a23d

seg.conv12.conv1.bn.weight f4 [16]
0.17345136 0.56535304 0.23686592 0.426916 0.39383033 0.2596152 0.32801524 0.34161282
0.32471094 0.12920433 0.19512722 0.65946114 0.19914089 0.26661175 0.60148066 0.6745264
00000000: 3c9d 313e faba 103f fb8c 723e bc94 da3e
00000010: 21a4 c93e 49ec 843e 9df1 a73e e0e7 ae3e
00000020: 8340 a63e 244e 043e 6ecf 473e 72d2 283f
00000030: 97eb 4b3e 5681 883e a3fa 193f c3ad 2c3f

seg.conv12.conv1.bn.bias f4 [16]
0.026709815 0.00085025415 0.03644914 0.04182054 0.012411228 0.03524288 0.009951119 0.051585957
-0.0019999172 -0.0014611322 0.03753913 0.02092692 0.037160017 0.074413516 0.11444385 0.009013763
00000000: 8bce da3c 97e3 5e3a b24b 153d 044c 2b3d
00000010: 7758 4b3c d75a 103d 050a 233c cc4b 533d
00000020: 0b11 03bb 7683 bfba a1c2 193d ef6e ab3c
00000030: 1a35 183d 1d66 983d 8a61 ea3d 76ae 133c

seg.conv12.conv1.bn.running_mean f4 [16]
-0.06120393 -0.2014471 -0.0040740366 0.13957427 0.08987032 -0.060338333 -0.21934001 0.032509778
-0.0045948913 0.09859491 0.04807097 -0.039699942 0.35931924 0.082842164 -0.14091198 -0.23319559
00000000: f9b0 7abd 2648 4ebe 7f7f 85bb 8fec 0e3e
00000010: ee0d b83d 5425 77bd ab9a 60be f928 053d
00000020: be90 96bb 21ec c93d 11e6 443d 689c 22bd
00000030: b1f8 b73e 27a9 a93d 3b4b 10be d3ca 6ebe

seg.conv12.conv1.bn.running_var f4 [16]
0.004619261 0.05086899 0.010331989 0.026943628 0.023055106 0.027946657 0.029061707 0.028133597
0.016809102 0.018579869 0.010594834 0.061044447 0.012546129 0.023073781 0.048281636 0.08359
00000000: 2b5d 973b 015c 503d 8147 293c e2b8 dc3c
00000010: 10de bc3c 63f0 e43c d112 ee3c 6e78 e63c
00000020: 3eb3 893c cf34 983c f495 2d3c be09 7a3d
00000030: 478e 4d3c 3a05 bd3c f7c2 453d 3c31 ab3d
