pretrained/esp.pth (torch_old, 195311 bytes, 126 tensors)

seg.encoder.level1.conv.weight f4 [16, 3, 3, 3]
0.05062855 0.073251136 -0.017537657 0.12273569 0.17485674 0.13913149 0.04842348 0.13806303
0.15821032 -0.06994821 -0.08660402 -0.05382351 -0.1217042 -0.081103794 -0.12546353 -0.06560675
-0.12067524 -0.1233792 0.0022538526 0.053433474 0.03232153 0.013024122 -0.024152637 -0.009421541
-0.015056197 -0.031768546 -0.005456903 0.11329158 0.11332153 -0.071811564 0.09501753 0.15907674
-0.013493827 -0.06429797 0.029725973 -0.06957816 -0.09659202 -0.10324392 0.0038754065 -0.099342786
-0.11223725 -0.020109354 0.005625745 -0.021294234 0.026572427 -0.05455381 -0.030386036 0.109155424
-0.042689368 -0.06666207 0.027372511 0.06620205 0.0015002853 0.055636592 6.513e-42 -7.916e-42
9.14e-43 1.42e-42 -6.795e-42 -7.476e-42 -5.501e-42 -7.734e-42 -9.715e-42 1.2465e-41
-8.677e-42 1.2057e-41 1.12e-41 1.0339e-41 8.46e-43 -6.054e-42 1.1542e-41 9.094e-42
9.316e-42 -8.24e-42 -7.402e-42 -8.04e-43 -5.469e-42 9.5e-42 8.384e-42 9.306e-42
-7.028e-42 -6.3e-44 -6.43e-42 -3.814e-42 -1.42e-43 1.65e-43 5.664e-42 8.74e-42
7.089e-42 -8.168e-42 -7.191e-42 -2.953e-42 1.0385e-41 1.1276e-41 -1.0208e-41 4.996e-42
-1.895e-42 6.411e-42 -6.299e-42 -4.032e-42 4.65e-42 9.22e-42 1.561e-42 5.07e-42
-6.126e-42 1.0765e-41 6.774e-42 3.223e-42 -0.06410772 -0.00877128 -0.008012494 -0.03226786
0.07870375 0.1255512 -0.07738785 0.051698763 0.13242897 0.010882283 -0.06506654 -0.04256349
-0.023493212 -0.15010954 -0.15436421 0.011244891 -0.08705439 -0.110234976 0.057963546 0.07195798
0.06605656 0.055589247 0.054426502 9.820113e-05 0.055349298 0.0462203 -0.02687365 0.09502078
0.022246815 -0.22554739 0.21041192 -0.033637784 -0.16891973 0.13091089 0.06853698 -0.08909206
0.15059091 -0.06847746 -0.20571478 0.19647755 0.020044656 -0.28611794 0.14360003 0.12911017
-0.07194314 0.108198486 -0.07351202 -0.06561454 0.12493275 0.023937792 -0.2212264 0.14647982
0.038187217 -0.077824794 -0.10584125 -0.026756395 -0.02565449 -0.101890035 0.027168512 -0.0014647398
-0.011560595 0.08308674 0.16885762 -0.15680008 -0.040310714 -0.029979354 -0.13101323 0.06017552
0.038789175 -0.050717767 0.09875541 0.19623004 -0.0928198 0.011502743 0.012109177 -0.06207222
0.07650493 0.030546485 -0.05296666 0.015189511 0.068796046 0.027482886 0.015874041 0.13530095
-0.07724019 0.13655525 0.19817308 -0.058312096 0.06948677 0.03267196 -0.10010551 -0.17405312
-0.15970458 -0.11641986 -0.1687549 -0.20285986 -0.08032409 -0.13842553 -0.17693776 0.109246835
0.087352775 0.095959306 0.16902122 0.04447738 0.06034042 0.08351227 0.13799243 0.048437495
-0.12113983 -0.14271903 -0.11136012 -0.092950165 -0.09127434 -0.112065725 -0.043631867 -0.057207525
0.005711161 0.015510469 0.0740706 0.004877879 0.018531434 0.06412287 -0.014344097 -0.028140057
0.003293993 -0.033766583 0.08061094 0.16146271 0.06992379 0.080415756 0.118948475 0.08179647
0.01889737 0.040600147 0.038350675 -0.28098106 -0.016532138 -0.0134833185 -0.20736942 -0.016515166
0.12419077 -0.0064036697 0.21233249 0.22742079 -0.1686071 0.004867548 0.008211166 -0.21876174
00000000: e25f 4f3d b104 963d 22ab 8fbc d95c fb3d
00000010: a50d 333e 7c78 0e3e b357 463d 6560 0d3e
00000020: e301 223e 0241 8fbd 735d b1bd 0a76 5cbd
00000030: 0d40 f9bd bf19 a6bd 8379 00be d55c 86bd
00000040: 9524 f7bd 3cae fcbd 5fb5 133b 0fdd 5a3d
00000050: 9563 043d 2163 553c c0db c5bc cf5c 1abc
00000060: 44ae 76bc bc1f 02bd d2cf b2bb 6a05 e83d
00000070: 1e15 e83d f111 93bd 8d98 c23d 03e5 223e
00000080: 3615 5dbc a7ae 83bd e283 f33c ff7e 8ebd
00000090: 09d2 c5bd 8c71 d3bd 88fa 7d3b 3b74 cbbd
000000a0: a5dc e5bd 5fbc a4bc 2b58 b83b 3f71 aebc
000000b0: 6bae d93c d173 5fbd 23ec f8bc e18c df3d
000000c0: 0cdb 2ebd 2086 88bd 513c e03c f194 873d
000000d0: 39a5 c43a 32e3 633d 2812 0000 1116 0080
000000e0: 8c02 0000 f503 0000 f112 0080 d714 0080
000000f0: 560f 0080 8f15 0080 151b 0080 bf22 0000
00000100: 3018 0080 9c21 0000 391f 0000 d21c 0000
00000110: 5c02 0000 e010 0080 2d20 0000 5a19 0000
00000120: f819 0000 f816 0080 a214 0080 3e02 0080
00000130: 3f0f 0080 7b1a 0000 5f17 0000 f119 0000
00000140: 9713 0080 2d00 0080 ed11 0080 a20a 0080
00000150: 6500 0080 7600 0000 ca0f 0000 5d18 0000
00000160: c313 0000 c516 0080 0c14 0080 3b08 0080
00000170: f31c 0000 6f1f 0000 751c 0080 ed0d 0000
00000180: 4805 0080 df11 0000 8f11 0080 3d0b 0080
00000190: f60c 0000 b419 0000 5a04 0000 220e 0000
000001a0: 1411 0080 021e 0000 e212 0000 fc08 0000
000001b0: e94a 83bd 6ab5 0fbc d646 03bc 4e2b 04bd
000001c0: 6f2f a13d 7e90 003e 857d 9ebd 15c2 533d
000001d0: 769b 073e 9a4b 323c 9b41 85bd 0e57 2ebd
000001e0: d674 c0bc 51b6 19be a711 1ebe 7e3c 383c
000001f0: 9249 b2bd e0c2 e1bd 2f6b 6d3d b55e 933d
00000200: a948 873d 8db1 633d 53ee 5e3d 55f1 cd38
00000210: f2b5 623d 7f51 3d3d 2126 dcbc 419a c23d
00000220: f43e b63c e5f5 66be 3976 573e c6c7 09bd
00000230: 4bf9 2cbe 810d 063e 1e5d 8c3d e675 b6bd
00000240: 8134 1a3e e93d 8cbd e5a6 52be 6931 493e
00000250: b134 a43c 0d7e 92be e30b 133e 7535 043e
00000260: ed56 93bd 2b97 dd3d 788d 96bd ea60 86bd
00000270: bedc ff3d 3019 c43c 2c89 62be cefe 153e
00000280: 336a 1c3d 9b62 9fbd 4cc3 d8bd 3a30 dbbc
00000290: 5d29 d2bc b9ab d0bd 8090 de3c 83fc bfba
000002a0: a668 3dbc 6129 aa3d 03e9 2c3e 3390 20be
000002b0: d91c 25bd 4397 f5bc 5528 06be 9b7a 763d
000002c0: 66e1 1e3d 6fbd 4fbd 4740 ca3d 87f0 483e
000002d0: 4f18 bebd 0076 3c3c 9265 463c 713f 7ebd
000002e0: 9eae 9c3d 9f3c fa3c 92f3 58bd 6ddd 783c
000002f0: f1e4 8c3d ca23 e13c 470a 823c 558c 0a3e
00000300: 1b30 9ebd 24d5 0b3e e2ed 4a3e aad8 6ebd
00000310: 144f 8e3d 08d3 053d 1e04 cdbd fb3a 32be
00000320: 9989 23be 896d eebd 16ce 2cbe 7fba 4fbe
00000330: f580 a4bd 6cbf 0dbe 2c2f 35be cebc df3d
00000340: 03e6 b23d 5086 c43d e613 2d3e ea2d 363d
00000350: 8427 773d 7b08 ab3d e34d 0d3e 6566 463d
00000360: 2918 f8bd f024 12be c610 e4bd a85c bebd
00000370: 0bee babd b782 e5bd 54b7 32bd 7052 6abd
00000380: b124 bb3b 9f1f 7e3c 54b2 973d 9dd6 9f3b
00000390: 3ccf 973c da52 833d 8103 6bbc fa85 e6bc
000003a0: 08e0 573b d44e 0abd 5917 a53d 7b56 253e
000003b0: 3434 8f3d 04b1 a43d 429b f33d e884 a73d
000003c0: a8ce 9a3c 574c 263d 9915 1d3d c0dc 8fbe
000003d0: 686e 87bc 23e9 5cbc a658 54be d04a 87bc
000003e0: bb57 fe3d e0d5 d1bb b06d 593e ffe0 683e
000003f0: 57a7 2cbe f47f 9f3b 2088 063c 1403 60be

seg.encoder.level1.bn.weight f4 [16]
0.10315805 0.08250819 -3.187e-42 -1.0503e-41 0.0783542 0.17377344 0.07651412 0.13772665
0.074532755 0.05586078 0.033341438 0.047351014 0.060456418 0.15512577 0.08403965 0.21242286
00000000: 8744 d33d 0efa a83d e208 0080 471d 0080
00000010: 2b78 a03d aaf1 313e 6fb3 9c3d 3708 0d3e
00000020: a1a4 983d 46ce 643d 0891 083d 23f3 413d
00000030: 26a1 773d 4ad9 1e3e fb1c ac3d 6185 593e

seg.encoder.level1.bn.bias f4 [16]
0.06782548 0.015987605 -1.463e-42 7.791e-42 -0.061537225 0.038681008 0.10083259 0.04936677
0.07856351 0.13344692 0.217076 0.08431571 0.14164294 -0.07089582 0.057353873 -0.12954442
00000000: 16e8 8a3d 70f8 823c 1404 0080 b815 0000
00000010: 750e 7cbd fa6f 1e3d 5181 ce3d cf34 4a3d
00000020: e8e5 a03d 4fa6 083e 2c49 5e3e b7ad ac3d
00000030: d90a 113e d431 91bd e5eb 6a3d 4ba7 04be

seg.encoder.level1.bn.running_mean f4 [16]
0.00392386 0.0049858107 -1.188e-42 -1.344e-42 0.0054479907 -0.0012758855 0.00023274914 0.009701939
-0.0009900501 -0.0008713735 8.056549e-05 2.737277e-05 0.012722489 0.01919374 -0.008943077 0.015216007
00000000: b993 803b 0360 a33b 5003 0080 bf03 0080
00000010: 0f85 b23b 9d3b a7ba 1f0e 7439 e2f4 1e3c
00000020: 92c4 81ba e36c 64ba 45f5 a838 939e e537
00000030: fd71 503c 313c 9d3c fc85 12bc 8f4c 793c

seg.encoder.level1.bn.running_var f4 [16]
0.2111452 0.034769922 6e-45 6e-45 0.037272956 0.19807123 0.066044085 0.16048427
0.3067339 0.1991302 0.14406033 0.018391263 0.14392845 0.39844504 0.12028639 0.19317652
00000000: 7336 583e e86a 0e3d 0400 0000 0400 0000
00000010: 87ab 183d 2fd3 4a3e 1f42 873d fd55 243e
00000020: 3a0c 9d3e cae8 4b3e 8d84 133e 46a9 963c
00000030: fb61 133e fd00 cc3e b658 f63d 11d0 453e

seg.encoder.level1.act.weight f4 [16]
-0.29559642 -0.050765887 1.264e-42 -4.699e-42 0.051315684 -0.514704 -0.022460785 -0.2836484
-0.032267828 0.0070905043 0.012231691 -0.015392619 0.0010108781 -0.08056358 -0.016808813 -0.030775785
00000000: 6a58 97be e4ef 4fbd 8603 0000 190d 0080
00000010: 6530 523d a4c3 03bf aeff b7bc 5d3a 91be
00000020: 452b 04bd 7657 e83b 6e67 483c 5331 7cbc
00000030: 717f 843a 85fe a4bd a3b2 89bc 801d fcbc

seg.encoder.b1.bn.weight f4 [19]
0.094347484 0.11368277 -8.919e-42 7.423e-42 0.08710118 0.11208305 0.15742643 0.07404742
0.10652309 0.18476692 0.18131462 0.11427835 0.18587384 0.1395092 0.110582486 0.1724537
0.13237514 0.1024678 0.08174856
00000000: 4139 c13d 83d2 e83d dd18 0080 b114 0000
00000010: 1a62 b23d cc8b e53d 6534 213e 2ca6 973d
00000020: c728 da3d 8a33 3d3e 8aaa 393e c40a ea3d
00000030: b655 3e3e 80db 0e3e 1279 e23d b497 303e
00000040: 598d 073e a3da d13d ca6b a73d

seg.encoder.b1.bn.bias f4 [19]
0.06993564 -0.114441164 -8.925e-42 -8.825e-42 -0.00033112217 0.088431835 -0.0445323 0.04347078
0.044351988 0.044984616 0.029460095 0.002545588 -0.07387574 -0.15698506 0.04188912 -0.24507423
-0.16796209 0.06056103 -0.088760056
00000000: 6b3a 8f3d 2160 eabd e118 0080 9a18 0080
00000010: 779a adb9 c01b b53d 8067 36bd 6b0e 323d
00000020: 6eaa 353d ca41 383d 4c56 f13c e1d3 263b
00000030: 2a4c 97bd b1c0 20be ed93 2b3d bdf4 7abe
00000040: 41fe 2bbe d80e 783d d5c7 b5bd

seg.encoder.b1.bn.running_mean f4 [19]
0.07839089 0.039237678 6e-45 7.784e-42 0.003571205 0.08382141 0.10558272 0.080700986
0.08608391 0.13484572 0.21711904 0.08634112 0.1418222 0.037838932 0.066511616 0.03737751
-0.03447926 -0.04129204 -0.033588763
00000000: 678b a03d b0b7 203d 0400 0000 b315 0000
00000010: e10a 6a3b 8faa ab3d c13b d83d 8f46 a53d
00000020: c34c b03d ff14 0a3e 7454 5e3e 9dd3 b03d
00000030: d739 113e fffc 1a3d 3e37 883d 2919 193d
00000040: 203a 0dbd d821 29bd 5f94 09bd

seg.encoder.b1.bn.running_var f4 [19]
0.008038669 0.0032306435 6e-45 6e-45 0.0010536707 0.015408376 0.003956709 0.008357568
0.0035150023 0.0025451125 0.0010827353 0.0014827175 0.0035696605 0.0014850545 0.004380988 0.0025578733
1.3021264 1.3038979 1.3576986
00000000: 9fb4 033c 34b9 533b 0400 0000 0400 0000
00000010: 521b 8a3a 6a73 7c3c 48a7 813b 2eee 083c
00000020: f45b 663b e7cb 263b 91ea 8d3a be57 c23a
00000030: f7f0 693b 29a6 c23a 648e 8f3b fea1 273b
00000040: 14ac a63f 20e6 a63f 11c9 ad3f

seg.encoder.b1.act.weight f4 [19]
-0.0022830516 -0.23713721 -7.695e-42 -1.1004e-41 0.0034922815 3.46e-42 -0.3350662 0.01756602
0.09913968 -0.07510754 -0.38934737 -0.5518906 0.28816533 0.15879953 -0.19051982 0.21721913
-0.026817663 0.06186688 -0.067855276
00000000: 409f 15bb 19d4 72be 7315 0080 ad1e 0080
00000010: c3de 643b a509 0000 cc8d abbe 9de6 8f3c
00000020: bf09 cb3d fbd1 99bd 8a58 c7be b448 0dbf
00000030: 688a 933e 589c 223e a117 43be b16e 5e3e
00000040: b7b0 dbbc 2068 7d3d b5f7 8abd

seg.encoder.level2_0.c1.conv.weight f4 [6, 19, 3, 3]
-0.13178954 -0.094696425 -0.004452814 -0.11424497 -0.14032885 0.016629672 -0.04856766 -0.14128858
-0.049271267 0.0047024013 0.0043385224 0.019507727 0.028363863 0.0387157 0.05499054 0.09166797
0.07852922 0.07628791 8.589e-42 8.237e-42 9.316e-42 1.2306e-41 1.1698e-41 1.1698e-41
7.748e-42 1.2046e-41 1.2046e-41 -7.938e-42 -1.1533e-41 -1.1533e-41 -1.631e-42 -7.357e-42
-1.0144e-41 -3.554e-42 -1.0144e-41 -1.0144e-41 0.01567169 -0.010516687 -0.016968424 0.010032134
-0.008244157 -0.033741258 0.014560565 -0.034301694 -0.023561949 -0.004597656 -0.03047901 -0.0230519
-0.034336533 -0.047311448 -0.036372345 -0.0031255486 -0.0321182 -0.04390573 0.012277183 -0.0011073325
-0.013855899 0.05915189 0.037653416 0.036707766 0.025978535 0.024109356 0.006328421 0.020891579
-0.028159993 -0.023560919 0.03074259 0.026141923 0.015723672 0.015431744 0.0006711125 0.018437799
-0.032273453 -0.0337241 -0.039123703 0.07151658 0.06839592 0.0035374654 0.061275702 0.05632315
-0.023354966 -0.0027981107 -0.0036928894 0.030915432 -0.053305555 -0.042054813 -0.019421633 -0.03810167
-0.058528125 -0.010635716 0.023424951 0.03828249 0.018822616 0.0538312 0.083345816 0.051132616
-0.026232095 0.056846783 0.086474724 -0.009737389 -0.0064467746 -0.0045997314 0.0026931907 0.012249371
0.0041105677 -0.030596616 -0.015582152 0.00050703733 -0.037218485 -0.02448158 -0.013929433 -0.02248291
-0.024070354 -0.085494995 0.040094905 0.09416407 0.0663803 -0.04487215 -0.060154945 -0.024585867
-0.08134614 -0.057820592 -0.04738067 -0.09170476 -0.052370813 -0.04717697 -0.047289476 -0.006626931
0.00089048035 -0.058323167 -0.044178337 0.018894553 -0.028010532 -0.10415546 -0.053714648 -0.0071044727
-0.020611811 -0.041206453 0.053321157 0.059606798 -0.020907756 0.08613986 0.11481013 0.015103855
-0.016437823 0.009051826 0.04467862 -0.029836532 -0.013488815 0.0145848915 -0.047181673 -0.057567254
-0.03611471 0.03052649 0.008436433 -0.015466586 0.03490355 -0.015413922 -0.0017389935 0.00010912896
-0.073256604 -0.090287544 -0.007734448 -0.017623208 0.0047947126 -0.013533021 -0.029120518 -0.007182044
-0.015450297 -0.0368683 -0.012172758 0.040575717 0.07473051 0.015447731 0.013991377 0.061891485
0.07616205 -0.0565884 -0.049342897 0.015750531 -0.016238486 -0.008908303 -0.01643918 -0.04161556
-0.026000652 -0.007406021 -0.044696774 -0.02957246 0.02261986 -9.579e-42 -1.0875e-41 -1.0514e-41
-7.566e-42 -6.307e-42 -6.307e-42 -8.235e-42 -7.737e-42 -7.737e-42 -3.524e-42 -2.873e-42
-2.873e-42 -8.56e-42 7.4e-43 7.4e-43 -8.049e-42 7.4e-43 7.4e-43 0.00073751545
-0.03188527 -0.06445779 0.019416831 -0.0029378382 -0.0065182983 0.007105231 -0.011552025 -0.019068556
-0.07391618 -0.107107915 -0.053191863 -0.08309291 -0.15405747 -0.13107088 -0.05876989 -0.11013837
-0.07481255 0.0007638372 0.0028501407 0.053993016 -0.0191143 -0.03847144 -0.0066461475 -0.04575485
-0.08163701 -0.08127865 0.00674659 0.041873876 0.032959767 0.016575612 0.07274027 0.07927876
0.0015267608 0.034231033 0.024118988 -0.011469796 -0.020190077 0.020958247 -0.01110728 -0.032146286
0.07331598 0.012879564 -0.011806708 0.048036594 0.015538951 -0.0006889046 -0.048543293 0.054929227
00000000: d6f3 06be 33f0 c1bd e9e8 91bb 44f9 e9bd
00000010: 5eb2 0fbe f33a 883c e2ee 46bd f4ad 10be
00000020: abd0 49bd 9a16 9a3b 2a2a 8e3b abce 9f3c
00000030: 555b e83c 5b94 1e3d c33d 613d 6bbc bb3d
00000040: edd3 a03d d63c 9c3d f117 0000 f616 0000
00000050: f819 0000 4e22 0000 9c20 0000 9c20 0000
00000060: 9915 0000 9421 0000 9421 0000 2116 0080
00000070: 2620 0080 2620 0080 8c04 0080 8214 0080
00000080: 471c 0080 e809 0080 471c 0080 471c 0080
00000090: eb61 803c 2f4e 2cbc 5d01 8bbc d25d 243c
000000a0: 8012 07bc 4634 0abd 708f 6e3c ef7f 0cbd
000000b0: fd04 c1bc efa7 96bb 1eaf f9bc 57d7 bcbc
000000c0: 77a4 0cbd a6c9 41bd 2bfb 14bd 01d6 4cbb
000000d0: 608e 03bd 7fd6 33bd 3d26 493c ea23 91ba
000000e0: da03 63bc 4149 723d 783a 1a3d e25a 163d
000000f0: f0d0 d43c fc80 c53c a55e cf3b d124 ab3c
00000100: c9af e6bc d402 c1bc e2d7 fb3c 9627 d63c
00000110: eece 803c 6dd5 7c3c 99ed 2f3a de0a 973c
00000120: 2b31 04bd 4822 0abd 2d40 20bd 4977 923d
00000130: 2913 8c3d d2d4 673b 3bfc 7a3d 1ab3 663d
00000140: ea52 bfbc 8260 37bb 6704 72bb 5c42 fd3c
00000150: ed56 5abd ab41 2cbd 1e1a 9fbc 7f10 1cbd
00000160: 30bb 6fbd 6d41 2ebc afe5 bf3c 1ace 1c3d
00000170: e331 9a3c 1b7e 5c3d 36b1 aa3d 6f70 513d
00000180: b1e4 d6bc 2cd8 683d a919 b13d 9289 1fbc
00000190: 773f d3bb 58b9 96bb 3e80 303b 96b1 483c
000001a0: f1b1 863b c1a5 fabc 484c 7fbc b3ea 043a
000001b0: 6972 18bd 988d c8bc 4738 64bc 142e b8bc
000001c0: 312f c5bc 0018 afbd 8e3a 243d 18d9 c03d
000001d0: 65f2 873d dccb 37bd 0865 76bd 4d68 c9bc
000001e0: ce98 a6bd 49d5 6cbd 3c12 42bd b5cf bbbd
000001f0: c782 56bd a33c 41bd 9cb2 41bd ba26 d9bb
00000200: 206f 693a 46e4 6ebd 58f4 34bd c0c8 9a3c
00000210: 5876 e5bc 754f d5bd e403 5cbd a3cc e8bb
00000220: 1ada a8bc 19c8 28bd 4967 5a3d 4226 743d
00000230: be46 abbc 186a b03d 9321 eb3d 2976 773c
00000240: 9da8 86bc 1c4e 143c ee00 373d be6b f4bc
00000250: 3100 5dbc 78f5 6e3c 9241 41bd a4cb 6bbd
00000260: 05ed 13bd b112 fa3c f738 0a3c 9067 7dbc
00000270: 06f7 0e3d ad8a 7cbc f0ee e3ba 2adc e438
00000280: 8f07 96bd ade8 b8bd 4171 fdbb 8c5e 90bc
00000290: f71c 9d3b 9bb9 5dbc 278e eebc 5a57 ebbb
000002a0: 3e23 7dbc 3703 17bd 3f70 47bc b932 263d
000002b0: 4f0c 993d 7b18 7d3c 173c 653c ed81 7d3d
000002c0: d9fa 9b3d 3dc9 67bd c71b 4abd 4207 813c
000002d0: 9306 85bc 22f4 11bc 76ab 86bc 1475 2abd
000002e0: 52ff d4bc 35ae f2bb f713 37bd f241 f2bc
000002f0: 494d b93c b41a 0080 511e 0080 4f1d 0080
00000300: 1715 0080 9511 0080 9511 0080 f516 0080
00000310: 9115 0080 9115 0080 d309 0080 0208 0080
00000320: 0208 0080 dd17 0080 1002 0000 1002 0000
00000330: 7016 0080 1002 0000 1002 0000 d355 413a
00000340: 219a 02bd 7202 84bd 0c10 9f3c bf88 40bb
00000350: 7397 d5bb ffd2 e83b b444 3dbc a935 9cbc
00000360: 5e61 97bd 655b dbbd b6df 59bd 9e2c aabd
00000370: 3ec1 1dbe 7237 06be b2b8 70bd 3a90 e1bd
00000380: 5237 99bd 3f3c 483a 6dc9 3a3b c827 5d3d
00000390: 9895 9cbc 3b94 1dbd edc7 d9bb 7069 3bbd
000003a0: 4e31 a7bd 6c75 a6bd 8012 dd3b f183 2b3d
000003b0: d200 073d 94c9 873c daf8 943d e75c a23d
000003c0: 971d c83a d735 0c3d 2f95 c53c d0eb 3bbc
000003d0: a965 a5bc a1b0 ab3c 4ffb 35bc d3ab 03bd
000003e0: b026 963d cf04 533c ec70 41bc 05c2 443d
000003f0: 1697 7e3c 9b97 34ba 55d5 46bd 78fd 603d

seg.encoder.level2_0.d1.conv.weight f4 [8, 6, 3, 3]
-0.071468286 0.01944697 0.03654125 -0.06840042 0.04313172 0.031305358 -0.024802698 0.06311578
0.02279537 0.052892637 0.005179889 -0.011204903 0.02921354 -0.00097343366 -0.045888547 0.094412796
-0.0667902 -0.0395681 0.08237599 0.03110871 -0.0607407 0.07988694 0.011335407 -0.08153798
0.07275143 0.013524445 -0.05198862 0.036025535 0.04543333 -0.029099204 0.021891443 0.023790373
-0.023833798 0.057314135 -0.02991092 -0.030913752 0.054884557 -0.04863968 -0.06445241 0.11359683
-0.065212585 -0.08426838 0.10448252 -0.009011768 -0.065699406 -0.0060534347 0.019657535 -0.037289403
0.01320326 0.020573149 -0.051168665 0.041182246 0.010391908 -0.006780388 -0.03522671 0.07461365
-0.051969457 0.008311109 -0.06874721 0.071215495 0.04314115 -0.015200752 -0.00813661 -0.11116605
0.018901074 0.01925687 0.06844226 0.09920143 0.0069101704 0.011113425 -0.025249502 0.019557178
0.05108066 -0.03776198 -0.02180438 -0.029858714 0.046511933 0.15874141 -0.00866187 -0.013543572
-0.03664639 -0.06822375 0.25760964 -0.091715105 0.007891396 -0.16187014 0.0050023473 0.045005925
-0.013073511 0.016247928 0.05224804 -0.076465465 0.02722181 0.015637305 0.011283572 0.006759934
-0.058815293 0.011757168 -0.012003998 0.048681498 -0.15798196 0.095567755 -0.01779852 0.081396505
-0.0081268065 -0.0066296505 0.019804103 -0.033554498 -0.0050102817 0.005307074 0.011639447 -0.011124765
-0.011300482 -0.006503353 -0.012854417 -0.010823479 -0.004848499 -0.026209967 -0.008150543 -0.008173226
0.00060587894 0.018142061 0.0108101005 0.0062192506 0.008492837 0.013156993 0.009931637 0.016104775
0.023326343 0.004442884 -0.030829536 -0.015907824 0.009156464 -0.0135966465 0.008204069 0.018598339
0.013224179 0.03394552 0.025220502 -0.0014015462 0.026396593 0.005073505 0.013364461 0.040171232
0.00048895663 -0.0058981967 -0.010837075 0.0054440983 -5.9579856e-05 -0.00974664 0.009210112 0.0026439808
-0.00782096 0.02020198 0.00970696 0.0067767818 0.02270503 0.00077160494 0.008802305 0.028022675
-0.00068028574 0.008117862 -0.016444217 -0.108332135 -0.035511818 0.0041907537 -0.056278136 -0.07601453
0.04645074 -0.02108853 0.028356764 0.01779885 0.023337375 0.003705497 -0.023793584 -0.004328216
-0.0052955383 -0.03081438 -0.041718174 -0.042031758 0.0036151586 0.0115849385 0.0017806406 0.057206288
0.14981751 0.07766583 0.055306792 0.069931164 0.021443982 -0.05508211 -0.11784956 -0.0051313126
-0.09787272 0.14182661 -0.002890109 -0.052747663 -0.0027264494 0.006777875 -0.0070584537 -0.065466166
-0.06709207 -0.042139187 -0.06675744 -0.057656866 0.042047076 -0.009225551 -0.0014856417 -0.009876825
0.008352755 -0.17558302 0.005083991 -0.027851535 -0.034784775 0.03787502 0.027887637 -0.01209238
0.015480936 -0.10904603 0.05949447 0.077040724 0.033252828 -0.0026715691 0.018218543 -0.042621177
-0.02827408 0.01799162 -0.03722272 -0.044270877 0.003619893 -0.08456199 0.061679862 0.0027173534
0.055561025 -0.0060639917 -0.003642134 0.04183215 0.04342877 0.037406232 0.03934357 0.07580748
-0.046624884 0.012650388 0.02442077 -0.019025844 -0.11116199 0.0288873 0.0010650349 0.46223775
0.10856105 0.012781766 0.040116552 -0.011345607 0.0028735842 0.07853374 -0.01273594 -0.027057597
00000000: f75d 92bd 414f 9f3c 47ac 153d 8515 8cbd
00000010: e3aa 303d 0c3a 003d 072f cbbc d942 813d
00000020: 5bbd ba3c f3a5 583d 0fbc a93b c594 37bc
00000030: 3c51 ef3c 072e 7fba a1f5 3bbd 7f5b c13d
00000040: 4dc9 88bd 2912 22bd beb4 a83d b2d7 fe3c
00000050: 3ecb 78bd c49b a33d 25b8 393c 62fd a6bd
00000060: b4fe 943d a295 5d3c 05f2 54bd 838f 133d
00000070: 4d18 3a3d 7461 eebc af55 b33c 07e4 c23c
00000080: 193f c3bc 3ac2 6a3d bf07 f5bc d63e fdbc
00000090: a1ce 603d 673a 47bd a0ff 83bd 74a5 e83d
000000a0: 2d8e 85bd e794 acbd eefa d53d 18a6 13bc
000000b0: 698d 86bd e45b c6bb d708 a13c c6bc 18bd
000000c0: 7c52 583c 0589 a83c 3c96 51bd b7ae 283d
000000d0: d242 2a3c 042e debb e249 10bd 0bcf 983d
000000e0: eddd 54bd 512b 083c 56cb 8cbd 6ed9 913d
000000f0: c6b4 303d 930c 79bc 6a4f 05bc 07ab e3bd
00000100: 6dd6 9a3c 95c0 9d3c 752b 8c3d 1f2a cb3d
00000110: b66e e23b 1515 363c 0bd8 cebc 6036 a03c
00000120: f439 513d 4eac 1abd 199f b2bc 439a f4bc
00000130: 4c83 3e3d 1c8d 223e 84ea 0dbc dce5 5dbc
00000140: 861a 16bd e5b8 8bbd 69e5 833e 21d5 bbbd
00000150: ea4a 013c 49c1 25be bbea a33b 2258 383d
00000160: 4832 56bc 601a 853c 0a02 563d ed99 9cbd
00000170: 4600 df3c ce19 803c bbde 383c 7082 dd3b
00000180: 4ee8 70bd 23a1 403c 6bac 44bc 4066 473d
00000190: 06c6 21be 07b9 c33d 34ce 91bc 36b3 a63d
000001a0: 4c26 05bc 8a3d d9bb 373c a23c 7170 09bd
000001b0: 4a2d a4bb f7e6 ad3b 61b3 3e3c a544 36bc
000001c0: a825 39bc 141a d5bb 559b 52bc f654 31bc
000001d0: 28e0 9ebb 49b6 d6bc db89 05bc ffe8 05bc
000001e0: d9d3 1e3a a99e 943c d91c 313c dbca cb3b
000001f0: 8a25 0b3c 6e90 573c 4eb8 223c 29ee 833c
00000200: e316 bf3c 9d95 913b 398e fcbc 2051 82bc
00000210: fe04 163c 78c4 5ebc 5c6a 063c 8b5b 983c
00000220: 3aaa 583c 750a 0b3d 3a9b ce3c 16b4 b7ba
00000230: ab3d d83c a53f a63b 9df6 5a3c 978a 243d
00000240: 532d 003a a945 c1bb fd8d 31bc 6864 b23b
00000250: 62e5 79b8 5fb0 1fbc 02e6 163c a346 2d3b
00000260: 7c23 00bc 9f7e a53c f109 1f3c c40f de3b
00000270: e6ff b93c 8845 4a3a 8b37 103c cf8f e53c
00000280: 3455 32ba c800 053c 06b6 86bc 3ddd ddbd
00000290: d774 11bd 9752 893b e783 66bd 82ad 9bbd
000002a0: 2243 3e3d dac1 acbc 724c e83c e5ce 913c
000002b0: 062e bf3c ecd7 723b c3ea c2bc b5d3 8dbb
000002c0: 3286 adbb 706e fcbc ade0 2abd 7e29 2cbd
000002d0: 4cec 6c3b c1ce 3d3c 6264 e93a 2451 6a3d
000002e0: c369 193e 430f 9f3d 6089 623d 1238 8f3d
000002f0: 4aab af3c c79d 61bd 1c5b f1bd 9224 a8bb
00000300: 7e71 c8bd ff3a 113e fc67 3dbb ef0d 58bd
00000310: 3bae 32bb f018 de3b 9a4a e7bb 2013 86bd
00000320: 9167 89bd 249a 2cbd 20b8 88bd 9b29 6cbd
00000330: 8e39 2c3d c426 17bc ddb9 c2ba 68d2 21bc
00000340: fed9 083c 09cc 33be 9c97 a63b e728 e4bc
00000350: 7b7a 0ebd d622 1b3d 9d74 e43c 1e1f 46bc
00000360: c0a3 7d3c 8653 dfbd 79b0 733d 87c7 9d3d
00000370: 1e34 083d 7e15 2fbb 0e3f 953c 8b93 2ebd
00000380: 0b9f e7bc 2963 933c da76 18bd 6155 35bd
00000390: ba3b 6d3b d62e adbd 06a4 7c3d a015 323b
000003a0: f593 633d 73b4 c6bb deb0 6ebb 3058 2b3d
000003b0: 5ee2 313d 4737 193d b926 213d f440 9b3d
000003c0: bcf9 3ebd 9343 4f3c 110e c83c 16dc 9bbc
000003d0: e6a8 e3bd 0fa5 ec3c a498 8b3a 6daa ec3e
000003e0: 4155 de3d 9d6a 513c 4151 243d ede2 39bc
000003f0: be52 3c3b 4cd6 a03d 67aa 50bc e5a7 ddbc

seg.encoder.level2_0.d2.conv.weight f4 [6, 6, 3, 3]
0.01584015 0.036085308 0.066838995 -0.00938357 -0.06888022 0.008329683 0.0140157575 0.0015714188
0.042654738 0.038711525 -0.013386875 0.01562977 -0.021129427 -0.05619825 -0.09775001 -0.0120016765
0.038087554 -0.007248181 -0.0076612732 -0.01667061 1.8478737e-05 -0.01460535 -0.036301423 0.0066339723
-0.0033499787 -0.006819807 0.05191776 0.010748624 0.012436407 0.013748046 -0.0013266494 0.10019685
0.010956837 -0.004820693 -0.005374034 -0.025114007 -0.04382417 -0.04463998 -0.021964205 -0.024788786
0.1965605 -0.030951083 -0.01080879 -0.081883304 -0.016615923 -0.02245148 0.01629444 0.010747927
0.009853138 0.09770713 -0.0009014646 -0.016597927 0.027255973 -0.0059178197 -0.003865546 0.025604153
-0.012341609 0.042577073 -0.12477831 0.012732379 0.01810708 0.022097658 0.015437015 -0.039237432
-0.111279525 -0.009928899 -0.015728112 0.29779574 -0.008047227 -0.034858324 0.0027052416 -0.014813164
0.035141964 0.033237815 0.009442295 0.004303779 -0.023915078 -0.013793119 0.009332253 -0.039904915
0.0043423483 -0.007962003 -0.029037312 0.008123088 0.0019725398 0.026636848 0.003922577 8.699628e-05
0.018752135 -0.0029684477 -0.0054969494 -0.10675196 -0.01702299 -0.04992824 0.23099211 -0.018397897
-0.013674635 -0.038824834 0.012854022 -0.006333563 0.10125533 -0.009296871 0.041045528 -0.22970735
-0.0069412286 0.022754624 0.03221827 0.025313953 0.017625935 -0.10559773 -0.055799466 0.025062365
0.28624678 -0.16757493 0.007914804 -0.017860018 0.03647309 0.002670368 0.022542499 0.052807923
0.036826286 -0.24243253 0.078770116 -0.016061084 0.019511277 0.006892304 -0.004796704 0.057412323
0.010005945 -0.013084015 -0.030492632 0.012345181 0.007051625 -0.030745719 -0.013941867 0.014683803
0.028875394 0.03277345 0.027879886 -0.17050338 0.037167255 0.0042771455 0.030761264 -0.013160916
-0.015773665 -0.018936796 0.021388747 -0.00037517704 -0.018893518 -0.021230131 0.00032173007 -0.01577818
0.02944948 -0.025568403 -0.022912893 -0.0025564216 -0.0044386853 0.025181206 -0.052713703 -0.010543341
0.052251045 0.0019382903 -0.0059721614 -0.05344418 0.04231506 -0.09995635 -0.22872585 0.32084513
-0.020306937 0.05353648 -0.0056414767 -0.008833334 -0.0033234379 0.0046389047 0.014407775 -0.026657535
-0.0043120286 0.00040920792 -0.00044439558 -0.004318537 -0.0017875865 0.020971168 -0.01658325 0.02452296
0.07423803 -0.08395381 -0.0025654405 -0.01297297 0.005445362 -0.004003303 0.0025442243 0.009653799
0.008626077 0.020844815 -0.01600875 0.0041529224 -0.004282889 -0.00032630662 -0.010937201 -0.02767397
0.026208088 -0.05642786 -0.1936684 0.23421521 -0.016206492 0.0468329 -0.0031926236 0.013272248
-0.031513445 0.011496685 -0.03499379 -0.09022254 0.11651294 -0.0042525446 0.01210235 -0.004845443
0.03676557 0.04987952 -0.016702982 -0.01971469 0.023587707 0.051148187 0.0013551734 0.015400605
-0.0074029067 0.022567475 0.047023207 0.026125168 0.05021622 0.25556874 -0.091245204 -0.013947239
0.034399927 0.032999933 -0.018263813 0.0361919 0.0008907777 -0.04496767 0.15569907 0.058165282
0.013810634 -0.01448965 0.0033064752 0.0031380835 -0.051428482 -0.0037396792 0.026954664 -0.12385152
-0.024326345 -0.019089933 -0.0062994403 -0.0043391124 -0.012907643 -0.01728961 -0.032108612 0.0026092457
00000000: 34c3 813c 30ce 133d e2e2 883d 8cbd 19bc
00000010: 1311 8dbd 3979 083c 59a2 653c 11f8 cd3a
00000020: bcb6 2e3d fa8f 1e3d a054 5bbc 010a 803c
00000030: 9f17 adbc 2330 66bd 2831 c8bd aea2 44bc
00000040: b201 1c3d 2682 edbb 6b0b fbbb ce90 88bc
00000050: c902 9b37 474b 6fbc cdb0 14bd cb61 d93b
00000060: 518b 5bbb b078 dfbb b8a7 543d ff1a 303c
00000070: 12c2 4b3c 7c3f 613c f8e2 adba 0234 cd3d
00000080: 4e84 333c e7f6 9dbb aa18 b0bb e4bb cdbc
00000090: f980 33bd 69d8 36bd 47ee b3bc da11 cbbc
000000a0: 2847 493e 208d fdbc 5a17 31bc 6fb2 a7bd
000000b0: 1e1e 88bc 2bec b7bc eb7b 853c 1318 303c
000000c0: 0e6f 213c ad1a c83d 4450 6cba 60f8 87bc
000000d0: eb47 df3c 45ea c1bb 1a55 7dbb cdbf d13c
000000e0: 7634 4abc 4c65 2e3d c58b ffbd 789b 503c
000000f0: 4d55 943c 2606 b53c 89eb 7c3c 6eb7 20bd
00000100: 85e6 e3bd d2ac 22bc 3ed8 80bc af78 983e
00000110: 84d8 03bc 9ac7 0ebd 6c4a 313b eab2 72bc
00000120: 05f1 0f3d 6024 083d dbb3 1a3c b706 8d3b
00000130: 8ee9 c3bc 89fc 61bc 4ee6 183c 5673 23bd
00000140: 424a 8e3b 1073 02bc a8df edbc b316 053c
00000150: ba45 013b 8535 da3c f688 803b c671 b638
00000160: 149e 993c 4a8a 42bb c11f b4bb c6a0 dabd
00000170: cc73 8bbc 8e81 4cbd 3289 6c3e 30b7 96bc
00000180: 940b 60bc ca06 1fbd ad99 523c c789 cfbb
00000190: f45e cf3d e751 18bc 5b1f 283d 6738 6bbe
000001a0: 3f73 e3bb e867 ba3c 4ef7 033d 355f cf3c
000001b0: 4464 903c 9f43 d8bd fb8d 64bd 974f cd3c
000001c0: f08e 923e c398 2bbe 18ad 013c 2c4f 92bc
000001d0: cf64 153d 5701 2f3b 0cab b83c 1f4d 583d
000001e0: 29d7 163d 3c40 78be 3a52 a13d 8992 83bc
000001f0: 1dd6 9f3c d6d8 e13b ab2d 9dbb 2f29 6b3d
00000200: faef 233c 565e 56bc afcb f9bc 7143 4a3c
00000210: 5111 e73b 72de fbbc 6e6c 64bc 5594 703c
00000220: 178c ec3c 743d 063d 5c64 e43c 7098 2ebe
00000230: b13c 183d 4c27 8c3b 0cff fb3c e2a0 57bc
00000240: c637 81bc 5721 9bbc 7437 af3c 69b3 c4b9
00000250: 94c6 9abc d0ea adbc e1ad a839 3e41 81bc
00000260: 0940 f13c d474 d1bc d2b3 bbbc a389 27bb
00000270: 6472 91bb d148 ce3c 53ea 57bd fabd 2cbc
00000280: 3105 563d 3b0e fe3a 1fb2 c3bb 49e8 5abd
00000290: 8e52 2d3d eab5 ccbd 1c37 6abe d045 a43e
000002a0: bc5a a6bc 1149 5b3d 23dc b8bb b0b9 10bc
000002b0: 09ce 59bb f401 983b 970e 6c3c e760 dabc
000002c0: eb4b 8dbb f58a d639 c4fd e8b9 8482 8dbb
000002d0: 734d eaba bacb ab3c 99d9 87bc 60e4 c83c
000002e0: 1c0a 983d faef abbd f320 28bb 948c 54bc
000002f0: 026f b23b 242e 83bb 00bd 263b f82a 1e3c
00000300: 6454 0d3c bfc2 aa3c c824 83bc 3d15 883b
00000310: 7a57 8cbb 2214 abb9 f231 33bc 86b4 e2bc
00000320: 58b2 d63c e620 67bd 0251 46be 1dd6 6f3e
00000330: 7ac3 84bc dbd3 3f3d 563b 51bb d873 593c
00000340: 3e14 01bd 985c 3c3c a655 0fbd 98c6 b8bd
00000350: 569e ee3d ee58 8bbb ef48 463c 86c6 9ebb
00000360: 7f97 163d 784e 4c3d b1d4 88bc b480 a1bc
00000370: 023b c13c c380 513d 13a0 b13a d252 7c3c
00000380: 1594 f2bb 6ddf b83c 689b 403d 7304 d63c
00000390: 86af 4d3d e8d9 823e c4de babd f682 64bc
000003a0: f0e6 0c3d f02a 073d fe9d 95bc f53d 143d
000003b0: 1483 693a 0530 38bd 946f 1f3e b83e 6e3d
000003c0: ff45 623c ff65 6dbc 73b1 583b 4ea8 4d3b
000003d0: aca6 52bd 6815 75bb 07d0 dc3c dea5 fdbd
000003e0: 0b48 c7bc 7e62 9cbc 896b cebb 1d2f 8ebb
000003f0: 947a 53bc f1a2 8dbc 5284 03bd e1ff 2a3b

seg.encoder.level2_0.d4.conv.weight f4 [6, 6, 3, 3]
-0.0048214425 0.0068114856 -0.022555448 0.0036062119 -0.12494548 -0.035501793 -0.0020110284 0.0022203515
0.016851407 0.011029172 0.006784002 0.016993264 -0.0074140085 -0.1716952 -0.001764011 0.0019290355
0.012216356 0.007739471 -0.008568307 0.013281928 0.0060694437 -0.017642632 -0.006989954 -0.005855235
-0.0030043945 0.0003839011 0.010159909 0.0028056267 0.0006612851 0.012186225 -0.0011873996 0.15679929
-0.007552033 -0.0088229915 -0.016225167 -0.0051552327 -0.019683603 -0.019263903 -0.0013308439 0.00063188764
0.20979184 -0.00025976077 -0.013335786 -0.0121374875 0.013011899 -0.0018341127 -0.013692639 -0.01416595
4.120139e-05 -0.11569903 0.007601425 0.0018973466 0.00815532 0.013599644 0.012906697 0.047711223
0.008809541 0.07030296 -0.046936367 0.021721 0.026898239 0.01629 -0.0032293333 -0.020710029
0.008865598 -0.005336122 -0.0050514736 -0.040128265 -0.0006356573 -0.008327625 -0.027073676 0.019324256
-0.014756439 -0.049218547 -0.01782752 -0.042010944 0.14794978 -0.03376915 -0.022744618 -0.009498963
-0.018686993 -0.0017576079 0.028178083 -0.011359375 0.018721124 -0.06190617 0.008374293 0.016289447
-0.0014379224 0.00034958628 -0.010985917 0.0039815186 0.0010207965 -0.062200032 0.038313586 -0.011675603
-0.025831092 -0.0049227625 -0.009747185 0.028569892 0.047827266 -0.0014201734 0.054663 -0.22107472
-0.010334225 0.046643656 0.06582794 0.0033599979 0.0046375133 -0.043636035 0.0032191146 0.0032924304
0.15412284 0.02047335 -0.06651327 0.004945636 0.007493584 -0.009774982 0.008016262 0.0047002556
0.037964217 -0.07242436 -0.03593794 -0.0025474941 0.04597409 0.017435793 0.0115574645 0.00097198476
-0.023969773 -0.012998953 0.15565991 0.018099966 0.009584257 0.002826873 0.017423699 -0.005603725
0.015038472 0.009112365 0.018304888 -0.047991063 -0.0024177667 0.004270618 0.048297103 -0.017455991
-0.005007664 -0.01013678 0.021428691 -0.049730588 0.12644756 -0.024774741 -0.02094122 -0.009077998
-0.013894236 -0.0058225445 0.009025774 0.000882935 0.011239856 0.007768209 0.012185789 -0.0072907265
0.03034548 0.011398008 0.003718799 0.04104607 0.005692812 0.0027505602 -0.045458674 0.033484627
0.0115226 -0.036284585 -0.019519556 -0.011121515 0.0075609577 0.014202555 0.007445317 0.015712343
-0.019390723 -0.0046353717 -0.0010428553 0.0031402833 0.010541754 -0.023763532 0.012533529 -0.027549485
0.03799393 -0.004507785 -0.0069243624 0.003657139 0.00045606805 -0.002539911 -0.0045313803 0.009805725
-0.0025523603 -0.018052727 -0.011839128 -0.013394896 0.0013650061 0.0017329751 -0.0014807486 0.05894378
0.0066508283 0.010390745 -0.074735224 0.037771262 0.0095634805 -0.018641938 -0.033904415 0.0016377452
0.020425258 -0.013395831 -0.009667305 -0.024319768 0.045372956 0.009073559 -0.019440448 -0.00243572
0.0039533507 -0.0034655984 -0.0013338253 -0.004482373 0.024074452 -0.005637863 -0.002994431 0.007984056
0.011011723 0.010953504 0.004302361 0.0102257915 0.0069339247 0.2595157 -0.007901817 0.0059968415
0.008929004 0.01331237 0.005566075 0.0069259508 0.0057619186 -0.0018847795 0.15633959 -0.0074295425
0.004403817 0.0133762695 0.0016375474 -0.0104051335 -0.012539807 -0.007984357 0.008315632 -0.12702358
-0.026346462 -0.00087070954 -0.011085042 -0.0021559757 -0.001851444 -0.0067364825 -0.0066071497 -0.010397433
00000000: 31fd 9dbb e232 df3b 34c6 b8bc 3256 6c3b
00000010: 6ae3 ffbd 546a 11bd 75cb 03bb 5183 113b
00000020: f60b 8a3c b3b3 343c 554c de3b 7535 8b3c
00000030: 36f1 f2bb ded0 2fbe 6336 e7ba b1d7 fc3a
00000040: 1c27 483c 639b fd3b 1662 0cbc 729c 593c
00000050: 2fe2 c63b 4887 90bc fc0b e5bb 45dd bfbb
00000060: 60e5 44bb 5546 c939 bf75 263c 9bde 373b
00000070: 185a 2d3a bba8 473c 85a2 9bba fe8f 203e
00000080: 0b77 f7bb 4f8e 10bc a4ea 84bc 3aed a8bb
00000090: 823f a1bc 55cf 9dbc b66f aeba 43a5 253a
000000a0: acd3 563e 8030 88b9 577e 5abc 50dc 46bc
000000b0: dc2f 553c 9c66 f0ba 1757 60bc 4d18 68bc
000000c0: a8cf 2c38 9df3 ecbd 6015 f93b 63b0 f83a
000000d0: e49d 053c 0bd1 5e3c 9c76 533c d86c 433d
000000e0: e555 103c 00fb 8f3d 5940 40bd 3df0 b13c
000000f0: b259 dc3c 9b72 853c 39a3 53bb 14a8 a9bc
00000100: 0341 113c a3da aebb d586 a5bb 895d 24bd
00000110: 3da2 26ba 9770 08bc 9dc9 ddbc e74d 9e3c
00000120: fec4 71bc 6399 49bd 050b 92bc ab13 2cbd
00000130: 2680 173e 8551 0abd ec52 babc 8aa1 1bbc
00000140: 7715 99bc 895f e6ba b9d5 e63c ac1c 3abc
00000150: 0b5d 993c 5391 7dbd 5534 093c 7271 853c
00000160: ab78 bcba ad48 b739 47fe 33bc 6677 823b
00000170: 3fcc 853a 76c5 7ebd b5ee 1c3d 074b 3fbc
00000180: ba9b d3bc 204f a1bb a8b2 1fbc 680b ea3c
00000190: 86e6 433d 1d25 baba 4fe6 5f3d 6961 62be
000001a0: e250 29bc 6b0d 3f3d cdd0 863d 6933 5c3b
000001b0: 48f6 973b b3bb 32bd c8f7 523b d1c5 573b
000001c0: 61d2 1d3e bab7 a73c 1c38 88bd 000f a23b
000001d0: bd8c f53b 3f27 20bc a456 033c 9a04 9a3b
000001e0: 5e80 1b3d 3953 94bd a933 13bd dcf3 26bb
000001f0: 544f 3c3d 82d5 8e3c 855b 3d3c cbcc 7e3a
00000200: 425c c4bc 90f9 54bc 5065 1f3e 6146 943c
00000210: 4a07 1d3c 0f43 393b 25bc 8e3c 749f b7bb
00000220: ec63 763c 074c 153c 22f4 953c 4792 44bd
00000230: 6573 1ebb 8af0 8b3b 2fd3 453d deff 8ebc
00000240: 5517 a4bb bd14 26bc 398b af3c 4db2 4bbd
00000250: 787b 013e 66f4 cabc ec8c abbc e2bb 14bc
00000260: a6a4 63bc 0bcb bebb d7e0 133c c474 673a
00000270: 5f27 383c 768c fe3b e7a6 473c 0ce7 eebb
00000280: 1697 f83c b6be 3a3c 18b7 733b ed1f 283d
00000290: c58a ba3b be42 343b e032 3abd 2d27 093d
000002a0: 4ac9 3c3c 259f 14bd 7ae7 9fbc 0437 36bc
000002b0: e9c1 f73b d5b1 683c d9f7 f33b 2cb7 803c
000002c0: 4bd9 9ebc 51e4 97bb 6bb0 88ba 36cd 4d3b
000002d0: 52b7 2c3c bdab c2bc 6e59 4d3c 75af e1bc
000002e0: 869f 1b3d 0bb6 93bb c3e5 e2bb 9cac 6f3b
000002f0: 6b1c ef39 a374 26bb f97b 94bb 31a8 203c
00000300: 8045 27bb 50e3 93bc e7f8 41bc 4476 5bbc
00000310: 01ea b23a ff24 e33a ae15 c2ba 086f 713d
00000320: 31ef d93b f13d 2a3c c80e 99bd 0ab6 1a3d
00000330: 25b0 1c3c fab6 98bc 5bdf 0abd 9ca9 d63a
00000340: df52 a73c 307a 5bbc 9e63 1ebc 403a c7bc
00000350: fed8 393d 44a9 143c 9341 9fbc 9aa0 1fbb
00000360: 1c8b 813b 181f 63bb c0d3 aeba dfe0 92bb
00000370: c937 c53c d3bd b8bb 373e 44bb 8fcf 023c
00000380: 846a 343c 5376 333c d2fa 8c3b 148a 273c
00000390: fa35 e33b 3edf 843e 9f76 01bc 2781 c43b
000003a0: f54a 123c 201c 5a3c 9f63 b63b 16f3 e23b
000003b0: 7ace bc3b b50a f7ba 7c17 203e 8573 f3bb
000003c0: e54d 903b 2428 5b3c f9a2 d63a 4b7a 2abc
000003d0: c373 4dbc d2d0 02bc 4a3e 083c 7812 02be
000003e0: 89d4 d7bc 5440 64ba 099e 35bc 454b 0dbb
000003f0: 27ac f2ba b6bd dcbb ca80 d8bb ff59 2abc

seg.encoder.level2_0.d8.conv.weight f4 [6, 6, 3, 3]
0.001105356 0.0131239705 0.002498087 -0.0010737134 0.025893562 0.024380902 0.00696164 0.017034376
0.0072264704 0.0019218327 0.021402065 0.011476502 0.025895415 0.052060757 0.0035493989 -0.015549374
-0.010921604 -0.015184521 -0.010601519 -0.005602129 0.004255219 -0.04643456 0.17198274 -0.04201709
0.01351044 -0.017709184 0.0049949945 0.016526759 0.009396773 0.023424195 0.0016502962 -0.037588716
0.0054207607 0.014894455 -0.0004331417 0.009957118 -0.018459862 -0.015555082 -0.022523602 -0.017970758
0.15058787 -0.024527606 -0.023647932 -0.067984276 -0.033374462 0.0020969561 -0.03495378 0.007336925
-0.016380416 0.0634366 -0.0045817676 0.016403671 0.04657528 0.026771028 0.014155032 0.027530462
0.009812681 0.007694872 -0.047344167 0.005292582 0.0069228355 -8.667303e-05 0.005087032 -0.024087515
-0.021540381 0.008307344 0.0005200545 -0.039907772 0.0031423012 0.0056745717 -0.007084701 -0.0035948714
0.0061357683 -0.021702997 0.016967569 -0.0013701798 0.14853357 0.0039957403 -0.007619692 -0.011987263
0.0011458807 0.013679987 0.013870078 -0.013987173 0.015936453 -0.059795424 -0.0013076667 -0.0041232887
0.0036809612 0.0038433871 -0.0038511793 -0.002894176 -0.014438812 -0.014531533 0.034496684 -0.012904795
0.0023630974 0.008465435 0.005589439 0.0027595765 0.0041470313 0.0015139349 0.048935372 -0.22242044
0.017017093 0.012777185 0.03150356 -0.0008297496 -0.010224028 -0.027794084 -0.0009648994 -0.027024051
0.17391263 0.02265962 -0.027458528 -0.009661931 -0.021921149 -0.012822178 0.006143359 -0.012784579
-0.0003442614 -0.047459725 0.008479455 -0.009172989 0.010842342 -0.009867534 0.03939809 0.020670915
0.021972504 5.1010902e-05 -0.036464773 0.01073944 0.02293016 0.028189186 0.03771077 -0.025024092
0.012579693 -0.0038753212 0.03278387 -0.08246042 -0.007075918 -0.0049218135 0.0076320185 -0.0006956058
-0.018504923 -0.023099476 -0.0071319444 -0.044144448 0.12586461 -0.04632295 -0.029474206 -0.036898807
-0.028321052 0.0032589592 0.003194276 -0.013261977 -0.03737517 -0.07866817 -0.00024784158 -0.028619058
-0.01458331 -0.028558034 0.0031689527 0.018792937 0.007541332 -0.022791313 0.115373716 0.0057384158
-0.025640545 -0.003154681 0.019332038 -0.0014069161 0.02416686 0.04740222 0.06289043 -0.12727973
-0.0017351819 0.008169716 0.009112881 -0.009380008 0.0058641853 -0.028700307 0.029113322 0.049073007
-0.0697431 0.026896397 0.026372569 0.04140201 0.017130613 0.007912743 0.03973618 0.0054529854
-0.02895954 0.010658061 0.005583858 -0.007088506 0.009275484 -0.0006987034 0.024301656 -0.022783455
0.017493205 0.0845578 -0.23905256 -0.00972393 0.0061113858 0.034904778 -0.010637813 -0.02380093
-0.010953841 -0.0075115254 -0.07530263 0.16717656 -0.03211943 -0.012321322 0.0020645345 0.0021907939
0.01113512 -0.018772498 -0.0051431996 -0.011384375 0.11652701 -0.0015977846 -0.008421408 -0.018618073
-0.0009684075 -0.0032449411 0.01402899 -0.0020479937 -0.009350148 0.10641085 0.02734195 -0.011721399
0.008506168 0.022491565 0.00816929 -0.002475768 -0.010720619 0.024164887 0.24400526 0.0017166823
0.011024251 -0.009018712 0.0013695899 0.00015572635 0.010185619 0.0014605041 0.0015869121 0.19688909
-0.019360784 -0.010733645 -0.007699669 0.004811568 -0.0011513185 -0.012110497 -0.0078698555 -0.0057901614
00000000: 98e1 903a ec05 573c f2b6 233b d8bb 8cba
00000010: bc1e d43c 75ba c73c 781e e43b ad8b 8b3c
00000020: 07cc ec3b 01e6 fb3a 6253 af3c f007 3c3c
00000030: 9f22 d43c a93d 553d 089d 683b cdc2 7ebc
00000040: 87f0 32bc 7fc8 78bc feb1 2dbc 1092 b7bb
00000050: 5d6f 8b3b 2a32 3ebd 3e1c 303e 1d1a 2cbd
00000060: e45a 5d3c da12 91bc 0dad a33b 2063 873c
00000070: ecf4 193c 19e4 bf3c c04e d83a a0f6 19bd
00000080: a3a0 b13b df07 743c 4b17 e3b9 2e23 233c
00000090: 2339 97bc beda 7ebc 6b83 b8bc 6937 93bc
000000a0: b533 1a3e 1eee c8bc 4fb9 c1bc 573b 8bbd
000000b0: a9b3 08bd 166d 093b b22b 0fbd 966a f03b
000000c0: 3930 86bc 0ceb 813d a722 96bb fe60 863c
000000d0: b9c5 3e3d ea4e db3c 82ea 673c 9087 e13c
000000e0: 5ec5 203c 4425 fc3b f5eb 41bd 656d ad3b
000000f0: f4d8 e23b 3bc4 b5b8 1eb1 a63b 2e53 c5bc
00000100: 7475 b0bc 871b 083c 4454 083a 5576 23bd
00000110: 11ef 4d3b c2f1 b93b c826 e8bb ef97 6bbb
00000120: 8e0e c93b 7cca b1bc 92ff 8a3c 9b97 b3ba
00000130: 2f19 183e b3ee 823b 9cae f9bb 3a66 44bc
00000140: 6031 963a 0622 603c 533f 633c 752a 65bc
00000150: 2a8d 823c 0cec 74bd 0366 abba a71c 87bb
00000160: 483c 713b 56e1 7b3b 1164 7cbb 37ac 3dbb
00000170: c490 6cbc ab15 6ebc 654c 0d3d a26e 53bc
00000180: 32de 1a3b 9cb2 0a3c 9d27 b73b 03da 343b
00000190: d2e3 873b 3a6f c63a 7570 483d 2fc2 63be
000001a0: 6e67 8b3c 6657 513c e009 013d 8e83 59ba
000001b0: ae82 27bc 6bb0 e3bc 4df1 7cba 8b61 ddbc
000001c0: 2716 323e aba0 b93c b5f0 e0bc 134d 1ebc
000001d0: fb93 b3bc 1d14 52bc 3b4e c93b 6976 51bc
000001e0: fc7d b4b9 2165 42bd 69ed 0a3c 4e4a 16bc
000001f0: 14a4 313c 70ab 21bc e45f 213d 0d56 a93c
00000200: aeff b33c 8af4 5538 165c 15bd 7af4 2f3c
00000210: 08d8 bb3c 02ed e63c 9c76 1a3d 53ff ccbc
00000220: 0f1b 4e3c 1af9 7dbb 6148 063d 02e1 a8bd
00000230: 1add e7bb 2a47 a1bb 0316 fa3b 5159 36ba
00000240: a397 97bc 1d3b bdbc 16b3 e9bb cfd0 34bd
00000250: a7e2 003e 22bd 3dbd e473 f1bc 3423 17bd
00000260: 8d01 e8bc 4394 553b 0f57 513b c348 59bc
00000270: b516 19bd c71c a1bd bcf0 81b9 8472 eabc
00000280: d6ee 6ebc 8af2 e9bc 34ae 4f3b a5f3 993c
00000290: 471d f73b d9b4 babc 0e49 ec3d 5209 bc3b
000002a0: 1f0c d2bc c4be 4ebb 395e 9e3c 4568 b8ba
000002b0: 94f9 c53c d528 423d b3cc 803d 9e55 02be
000002c0: 0b6f e3ba 46da 053c 314e 153c 9bae 19bc
000002d0: 5a28 c03b e81c ebbc 107f ee3c c700 493d
000002e0: 78d5 8ebd d555 dc3c 490b d83c 2795 293d
000002f0: 8055 8c3c 73a4 013c 68c2 223d f5ae b23b
00000300: 8f3c edbc 269f 2e3c ccf8 b63b b346 e8bb
00000310: 33f8 173c 3129 37ba 4414 c73c 5ea4 babc
00000320: e94d 8f3c a42c ad3d 32ca 74be 1e51 1fbc
00000330: 0542 c83b 50f8 0e3d 394a 2ebc 2bfa c2bc
00000340: bd77 33bc 3e23 f6bb 4438 9abd 5530 2b3e
00000350: aa8f 03bd 5fdf 49bc 244d 073b 6c93 0f3b
00000360: 1470 363c c8c8 99bc 4988 a8bb 8885 3abc
00000370: b7a5 ee3d c16c d1ba f2f9 09bc ee84 98bc
00000380: badc 7dba 14a9 54bb d9d9 653c a237 06bb
00000390: 5d31 19bc efed d93d 3afc df3c 1c0b 40bc
000003a0: 745d 0b3c 3b40 b83c 7cd8 053c 7f40 22bb
000003b0: 89a5 2fbc 71f5 c53c 84dc 793e 4d02 e13a
000003c0: 0f9f 343c 38c3 13bc d083 b33a 794a 2339
000003d0: 95e1 263c 636e bf3a efff cf3a 4b9d 493e
000003e0: 829a 9ebc 2cdc 2fbc 814d fcbb 5caa 9d3b
000003f0: d7e7 96ba 1b6b 46bc 91f0 00bc 65bb bdbb

seg.encoder.level2_0.d16.conv.weight f4 [6, 6, 3, 3]
-0.004951883 -0.022081014 -0.020891784 0.007899396 0.03259102 -0.00034929402 -0.017816873 -0.021977223
-0.028295973 0.0008412429 0.008362674 0.0016593982 0.032358665 0.059590127 0.017874066 0.0050994325
-0.0045154607 -0.021080703 -0.023774927 -0.018843254 -0.020469123 -0.031047547 0.17492676 -0.036881927
-0.0013232637 -0.052328352 -0.017939929 0.033197764 0.0020528454 0.013830649 0.0168699 -0.027658056
0.019461272 0.010306403 -0.0054745534 0.018131774 -0.01849103 -0.030810852 -0.00977451 -0.021161225
0.15113117 -0.020079445 0.0076265535 -0.014690533 0.0019389112 0.012377966 -0.028886523 0.005722365
-0.014905361 0.0670587 -0.028662527 0.027739037 0.042280726 0.013164164 0.027088456 0.0549154
0.040262412 0.024742192 -0.049111206 0.021480726 0.0205926 0.010212629 0.0067152395 -0.026721286
-0.018796153 0.004964381 -0.0068141436 -0.03904408 0.0035492603 0.016980074 -0.0053052134 0.0032899794
0.012833848 -0.0010835759 0.017597761 -0.010849708 0.14732794 -0.007878772 -0.007005708 -0.020610325
-0.005148926 0.006101348 0.014475096 -0.0034381682 -0.003572049 -0.05897057 -0.011377276 -0.0020531525
-0.001472655 0.014059918 -0.025440423 -0.030737506 -0.032580882 -0.011029736 0.033744007 -0.004995835
-0.018641025 0.0013525111 -0.00799278 0.03228463 0.02227883 0.01909359 0.050522048 -0.2233359
0.017748449 0.009092533 0.041498076 -0.00013266451 -0.04027333 -0.07864749 -0.027483353 -0.06636785
0.17599969 -0.059925742 -0.03305412 -0.008756928 -0.0151752895 -0.012071496 -0.0076453728 -0.018430203
-0.00049513706 -0.047609072 -0.029369578 0.0010754744 0.01771407 -0.013917593 0.030904228 0.0024231204
0.020621186 0.044600826 -0.036069945 0.020945968 0.034713354 0.033093307 0.01565235 -0.032648657
-0.009383442 -0.022370266 -0.01748971 -0.08316384 0.022750752 -0.036659896 0.0004219705 0.00050348433
-0.01175752 -0.013293023 0.0088731935 -0.065189935 0.12655012 -0.07350781 -0.012219708 -0.04511069
-0.009500156 -0.032574996 -0.019521078 -0.031640947 -0.017602375 -0.08062848 0.0047064293 -0.01800266
-0.01705802 -0.014185348 -0.018873537 0.007913815 -0.0077439756 -0.054399233 0.118576154 -0.039966468
-0.017442724 -0.010321923 -0.009470677 0.022469938 0.023524184 0.023710432 0.08139447 -0.12600237
0.05447887 -0.0021467085 0.019090153 0.004171767 0.040344894 0.053200457 0.03674218 0.04635037
-0.06975994 0.0036215554 0.005745589 0.0036326305 0.0046604094 0.017730592 0.0129332775 -0.00045301288
-0.011772876 0.011622277 -0.016194593 -0.019422445 0.002998284 -0.008246089 0.007849025 0.023988485
0.0061444854 0.118270725 -0.23727006 0.090456024 0.021346223 0.053105593 -0.015332337 -0.023892941
-0.04552924 -0.00677799 -0.061244465 0.16524434 -0.053484675 -0.01843089 -0.015193245 -0.03332505
0.0033277352 0.0023524684 -0.0051634023 -0.0051122173 0.015225667 -0.0017169398 -0.013272323 0.010066748
0.001201975 0.008118865 0.0023468584 0.0049264054 -0.003011795 0.10861677 0.008216322 0.0029710443
-0.003610629 0.0013173047 0.014976879 -0.010456681 0.002243378 0.024613451 0.19142161 -0.0039796177
0.013578308 -0.0035681212 0.005957783 0.004686094 -0.005051437 -0.0023244615 0.00055752014 0.21586
-0.0056085433 -0.003170624 0.002482358 0.013947995 0.006181674 -0.003781349 0.0076114056 0.020008843
00000000: 6843 a2bb 3ee3 b4bc 3f25 abbc 786c 013c
00000010: 297e 053d 7321 b7b9 b1f4 91bc 9409 b4bc
00000020: f5cc e7bc db86 5c3a 9903 093c 2a80 d93a
00000030: 858a 043d c714 743d a26c 923c 2419 a73b
00000040: 6ef6 93bb 70b1 acbc a3c3 c2bc 2b5d 9abc
00000050: ddae a7bc 6d57 febc 0020 333e 8111 17bd
00000060: 5d71 adba 4156 56bd c2f6 92bc 61fa 073d
00000070: 0889 063b f299 623c bf32 8a3c 2693 e2bc
00000080: 3f6d 9f3c 30dc 283c e263 b3bb 1689 943c
00000090: 807a 97bc 0a67 fcbc 4425 20bc 4e5a adbc
000000a0: 21c2 1a3e a67d a4bc 2be8 f93b 90b0 70bc
000000b0: 1023 fe3a f4cc 4a3c 6ea3 ecbc ad82 bb3b
000000c0: 9e35 74bc 1256 893d adcd eabc fa3c e33c
000000d0: 8e2e 2d3d 81ae 573c 9ce8 dd3c f8ee 603d
000000e0: 33ea 243d 23b0 ca3c d528 49bd 59f8 af3c
000000f0: d0b1 a83c df52 273c 830b dc3b 99e6 dabc
00000100: 64fa 99bc 3fac a23b 2e49 dfbb afec 1fbd
00000110: b59a 683b cc19 8b3c 5bd7 adbb b29c 573b
00000120: 0f45 523c c606 8eba 2e29 903c f9c2 31bc
00000130: 23dd 163e f715 01bc 2390 e5bb fcd6 a8bc
00000140: 52b8 a8bb d1ed c73b f428 6d3c e452 61bb
00000150: 0a19 6abb 208b 71bd c167 3abc 2f8e 06bb
00000160: 1a06 c1ba 925b 663c 6f68 d0bc 39cd fbbc
00000170: 8873 05bd 11b6 34bc 2837 0a3d 1ab4 a3bb
00000180: 10b5 98bc be46 b13a 26f4 02bc e33c 043d
00000190: 1882 b63c 296a 9c3c 35f0 4e3d 2bb2 64be
000001a0: 3265 913c d9f8 143c e3f9 293d dc1b 0bb9
000001b0: a6f5 24bd ef11 a1bd c524 e1bc deeb 87bd
000001c0: 4339 343e b274 75bd c263 07bd 3879 0fbc
000001d0: c7a1 78bc 86c7 45bc 0986 fabb f0fa 96bc
000001e0: 16cc 01ba bb01 43bd 7898 f0bc eff6 8c3a
000001f0: 191d 913c 9e06 64bc dd2a fd3c 37cd 1e3b
00000200: c3ed a83c 5baf 363d 14be 13bd e196 ab3c
00000210: 972f 0e3d d98c 073d 5b39 803c 99ba 05bd
00000220: 02bd 19bc d941 b7bc 9546 8fbc ce51 aabd
00000230: c95f ba3c b028 16bd ec3b dd39 43fc 033a
00000240: 9da2 40bc fbca 59bc df60 113c 4d82 85bd
00000250: 5b96 013e 438b 96bd 2c35 48bc fdc5 38bd
00000260: 8ba6 1bbc 5c6d 05bd abea 9fbc f099 01bd
00000270: db32 90bc 8b20 a5bd 6438 9a3b 507a 93bc
00000280: 43bd 8bbc a969 68bc ad9c 9abc f2a8 013c
00000290: 2dc1 fdbb bbd1 5ebd 0ed8 f23d e1b3 23bd
000002a0: 0be4 8ebc 481d 29bc e62a 1bbc e012 b83c
000002b0: cab5 c03c 613c c23c 25b2 a63d c406 01be
000002c0: 3c25 5f3d cbaf 0cbb f462 9c3c 51b3 883b
000002d0: b040 253d b9e8 593d f87e 163d e3d9 3d3d
000002e0: 4dde 8ebd 9e57 6d3b 7e45 bc3b 6d11 6e3b
000002f0: 59b6 983b bf3f 913c 19e6 533c 5c82 edb9
00000300: 05e3 40bc 5d6b 3e3c 86aa 84bc d21b 9fbc
00000310: dc7e 443b 9b1a 07bc 3299 003c 8083 c43c
00000320: ae57 c93b ec37 f23d ecf6 72be 0241 b93d
00000330: 46de ae3c 4085 593d 7b34 7bbc 21bb c3bc
00000340: de7c 3abd e719 debb 7adb 7abd d035 293e
00000350: bf12 5bbd 61fc 96bc 17ed 78bc d97f 08bd
00000360: 2216 5a3b df2b 1a3b c231 a9bb 6384 a7bb
00000370: 1375 793c f10a e1ba 2874 59bc 00ef 243c
00000380: 978b 9d3a fd04 053c c0cd 193b af6d a13b
00000390: 8961 45bb 7872 de3d c19d 063c dab5 423b
000003a0: 4da0 6cbb 69a9 ac3a 9561 753c 8052 2bbc
000003b0: a305 133b 26a2 c93c 0704 443e 7467 82bb
000003c0: 8d77 5e3c 24d7 69bb 8239 c33b ce8d 993b
000003d0: 8686 a5bb fe55 18bb 8b26 123a 670a 5d3e
000003e0: dfc7 b7bb 3eca 4fbb 0eaf 223b 2286 643c
000003f0: a48f ca3b 82d0 77bb 1969 f93b 96e9 a33c

seg.encoder.level2_0.bn.weight f4 [32]
0.02781064 0.25977686 -0.025092853 0.08769134 0.25036725 0.26430923 0.047999203 0.12792954
0.14667328 0.12534668 0.1424995 0.07848307 0.0025478236 0.14647639 0.22232647 -0.0002778833
0.12257567 0.04571699 0.14250928 0.01671623 -0.010108586 0.020042868 2.827395e-09 0.06873857
0.116426356 -0.00056427415 0.09771521 0.10181645 0.023737235 0.12414177 0.2795499 0.09471747
00000000: 24d3 e33c 7901 853e 878f cdbc 8497 b33d
00000010: 2330 803e 8a53 873e d09a 443d f6ff 023e
00000020: 8531 163e e15a 003e 64eb 113e bbbb a03d
00000030: 63f9 263b e8fd 153e 8da9 633e ddb0 91b9
00000040: f408 fb3d bd41 3b3d f4ed 113e 7af0 883c
00000050: 7c9e 25bc f130 a43c 0f4c 4231 cfc6 8c3d
00000060: f170 ee3d cceb 13ba e91e c83d 2585 d03d
00000070: 9774 c23c 0a3e fe3d 2a21 8f3e 3cfb c13d
